gru_model.pth (torch, 63260 bytes, 6 tensors)

gru.weight_ih_l0 f4 [192, 12]
0	0x3e1b7e4c	0.15184897
1	0xbe7c20a3	-0.24621825
2	0x3f2a5e80	0.66550446
3	0xbf30a3fc	-0.6900022
4	0x3f04096a	0.51576865
5	0x3d48b6e4	0.049002543
6	0xbdd0fb94	-0.10204235
7	0x3eccdc87	0.40012
8	0xbee2544c	-0.44204938
9	0x3e8429b1	0.25813058
10	0xbefeca4f	-0.49763724
11	0x3e855623	0.2604228
12	0x3eeeea14	0.46662962
13	0xbe8c53eb	-0.27407774
14	0x3f140351	0.5781756
15	0xbd32b55c	-0.04362999
16	0xbe5e1262	-0.216867
17	0xbcfdf785	-0.031001816
18	0xbdd39f01	-0.10333062
19	0xbd8e3069	-0.06942827
20	0xbf30d7ce	-0.6907929
21	0x3f0f4f80	0.5598068
22	0xbebe3fac	-0.37157953
23	0xbe42d79e	-0.19027564
24	0xbddeab2f	-0.108724944
25	0xbeb04a48	-0.34431672
26	0xbd398027	-0.04528823
27	0x3e217c8f	0.15770172
28	0x3eed039c	0.46291816
29	0x3ef8f9a6	0.48627967
30	0x3e5f39ec	0.21799439
31	0xbcdedc62	-0.027204696
32	0xbe0a5371	-0.13508393
33	0xbf3f01e5	-0.74612266
34	0xbdea06f0	-0.114271045
35	0xbe0bd033	-0.1365364
36	0x3d7ac780	0.061225414
37	0x3eae6ef4	0.34069026
38	0x3d2597e2	0.04042805
39	0xbc528beb	-0.012850742
40	0x3e85cbc5	0.26132026
41	0xbe36417d	-0.1779842
42	0x3deb54a4	0.11490753
43	0x3e32bf7e	0.17455861
44	0x3e92ef15	0.2869803
45	0xbea6cd12	-0.3257833
46	0xbd58127a	-0.052751996
47	0xbd533240	-0.051561594
48	0xbe42f9a2	-0.1904054
49	0xbedc2e18	-0.43003917
50	0x3ee86f6f	0.45397517
51	0xbe5cf028	-0.21575987
52	0x3d70e2c2	0.058810003
53	0xbd9f8038	-0.07788128
54	0xbed4e0ac	-0.4157766
55	0x3ddfe026	0.10931425
56	0x3da2e3f7	0.07953637
57	0x3ed69c99	0.4191635
58	0xbe002e9d	-0.12517782
59	0x3e407ea4	0.1879831
60	0x3e67f328	0.2265135
61	0x3cbbebfc	0.022939675
62	0x3eefa85b	0.46808133
63	0xbe370f43	-0.17876916
64	0x3f275c3e	0.65375125
65	0xbec3f9c0	-0.38276482
66	0x3e9852c9	0.2975066
67	0x3e4b1393	0.19831686
68	0xbec72710	-0.3889699
69	0x3c8d936c	0.01728221
70	0xbee4b74f	-0.44671103
71	0xbdf2e59a	-0.11860199
72	0xbcd5a481	-0.026079418
73	0xbe8f40de	-0.27979177
74	0xbcd1cc46	-0.0256101
75	0xbeefb5a4	-0.46818268
76	0x3f0a777a	0.54088557
77	0x3ed92a65	0.42415157
78	0x3ec526db	0.38506207
79	0x3df6ce4a	0.12051065
80	0xbe76d807	-0.24105845
81	0xbdd481f9	-0.10376353
82	0xbe7bb25c	-0.24579757
83	0x3e9cd7e7	0.3063347
84	0xbcd5e79d	-0.026111418
85	0x3e4950fc	0.196598
86	0x3ec8cb7f	0.39217755
87	0xbd98250c	-0.07428941
88	0x3c8d2479	0.017229306
89	0x3f09ca65	0.53824455
90	0xbeee690d	-0.46564522
91	0x3dd8312a	0.10556252
92	0xbebc2db5	-0.36753622
93	0x3ef1cdc1	0.4722729
94	0x3e600979	0.21878614
95	0xbe33ad39	-0.17546548
96	0x3e075ebb	0.1321973
97	0xbdbbbb4e	-0.09166585
98	0x3d0db81c	0.03459941
99	0xbe363dbf	-0.17796992
100	0x3e5a1b9b	0.21299593
101	0x3dcca12f	0.09991681
102	0xbe012f3b	-0.12615673
103	0x3d8b99c1	0.068164356
104	0x3e84afde	0.25915426
105	0x3e9969ae	0.2996344
106	0x3deb0806	0.1147614
107	0x3f35cf2f	0.7101926
108	0x3e1471ef	0.14496587
109	0xbf0a620b	-0.5405585
110	0xbdf9c2fe	-0.12195395
111	0xbf15b13c	-0.58473563
112	0x3e1b66cf	0.15175937
113	0xbd64a51e	-0.05582153
114	0x3d82f8ad	0.063950874
115	0x3f276d33	0.65401
116	0x3d058ace	0.032603078
117	0xbe648745	-0.22317226
118	0x3e736b89	0.2377149
119	0xbd931b97	-0.07182997
120	0x3dde5fa4	0.10858086
121	0x3f130e52	0.57443726
122	0x3e1537c5	0.14572056
123	0xbe3b1b56	-0.18272147
124	0xbdbfe687	-0.093701415
125	0xbdc21ad0	-0.0947777
126	0x3e7ed777	0.24886881
127	0x3e40b701	0.1881981
128	0x3de77dfa	0.11303325
129	0xbf062fd7	-0.5241675
130	0xbc461ce3	-0.012091848
131	0x3d07bec9	0.03314093
132	0x3e871044	0.26379597
133	0x3ea6f239	0.32606676
134	0xbe3dcc8d	-0.18535061
135	0x3ee90b83	0.45516595
136	0xbf419434	-0.75616765
137	0xbebef416	-0.37295598
138	0xbdf8d3fa	-0.12149806
139	0xbef543d1	-0.47903302
140	0x3f2a05ca	0.66415083
141	0x3e35b647	0.17745315
142	0x3ec0d492	0.37662178
143	0x3ddb5514	0.10709587
144	0x3f0ff29f	0.56229585
145	0xbe9295a3	-0.2862979
146	0x3ec3882a	0.38189822
147	0x3e51ab3e	0.2047548
148	0xbec51ade	-0.3849706
149	0xbe5e7a4b	-0.21726339
150	0xbe514265	-0.20435484
151	0xbe3ee14c	-0.18640631
152	0x3e8ef20b	0.2791904
153	0x3f55bdee	0.83492935
154	0x3dd63c41	0.10460711
155	0x3e560074	0.2089861
156	0x3c9ed6c0	0.01938951
157	0x3f21cf68	0.632071
158	0x3ebba6cc	0.36650693
159	0x3ca4c326	0.020112585
160	0xbf420508	-0.7578893
161	0x3dc87d72	0.09789552
162	0xbe90f69d	-0.2831315
163	0xbdb550e9	-0.08853323
164	0x3f0b4ad3	0.5441105
165	0xbf2cd78f	-0.67516416
166	0x3ebffffc	0.37499988
167	0x3db6d987	0.08928209
168	0x3dc2c28b	0.095097624
169	0x3cef9511	0.029245885
170	0xbeb711fe	-0.35755914
171	0x3e3a0fd0	0.18170094
172	0xbe024d8b	-0.12724893
173	0x3d945ad6	0.07243888
174	0x3d75256f	0.059850153
175	0xbf0d8aa3	-0.5528967
176	0xbef7628c	-0.48317373
177	0xbe283b67	-0.1642891
178	0xbd255ca7	-0.040371563
179	0x3d0e8c25	0.03480162
180	0xbe953980	-0.29145432
181	0x3ed47d9f	0.4150209
182	0xbe6d148f	-0.23152374
183	0x3e55f450	0.20893979
184	0x3f0888a4	0.533335
185	0xbb810952	-0.0039378786
186	0x3edbbdcf	0.4291825
187	0xbe7b63e0	-0.24549818
188	0x3f13ece0	0.5778332
189	0xbee4c6fc	-0.44683063
190	0xbe160989	-0.14652075
191	0xbe71e3ce	-0.23622057
192	0x3f268f72	0.6506263
193	0x3e10ccab	0.14140575
194	0x3f089c08	0.53363085
195	0x3dde4896	0.108536884
196	0xbdfcad66	-0.123377606
197	0x3da7056f	0.08155333
198	0xbdac313e	-0.0840783
199	0xbe26c4c4	-0.16285998
200	0xbe0914de	-0.13386866
201	0xbf00736b	-0.50176114
202	0xbce373ec	-0.027765237
203	0x3cadcf3d	0.021216983
204	0xbeaf91c5	-0.342909
205	0xbf52339b	-0.82109994
206	0x3d87e019	0.0663454
207	0x3e2daaeb	0.16959731
208	0xbd5b4a2c	-0.053537533
209	0x3e264577	0.16237436
210	0x3cc1f0a0	0.02367431
211	0xbdb1c956	-0.0868098
212	0x3f224efe	0.6340178
213	0x3f0cf240	0.55057144
214	0xbe56bccd	-0.2097046
215	0xbd5e7523	-0.05431093
216	0x3ebb7fbd	0.36620894
217	0xbebbdc33	-0.36691436
218	0xbe9f2c89	-0.31088665
219	0xbfa75f87	-1.3076028
220	0xbefb2052	-0.49048096
221	0xbcc3e19b	-0.023911288
222	0xbf3cb157	-0.737081
223	0x3f634a19	0.8878494
224	0x3e94be50	0.29051447
225	0x3ee29f06	0.4426195
226	0x3f59b916	0.85048044
227	0x3e27870d	0.16360112
228	0xbde4cb86	-0.111716315
229	0x3d2862a1	0.041109685
230	0x3ce4a17a	0.02790903
231	0xbe0954cd	-0.13411255
232	0x3dd5387f	0.104111664
233	0x3cc40ac5	0.023930917
234	0x3d61acc5	0.055096406
235	0x3e5ca953	0.21548967
236	0xbee96b4e	-0.4558968
237	0x3b010a70	0.001969006
238	0xbe45c557	-0.1931356
239	0xbeab70b3	-0.3348442
240	0xbe4972bc	-0.19672674
241	0x3e256fa8	0.16155875
242	0x3e848db7	0.2588937
243	0x3f0e6c35	0.5563386
244	0xbe9224b5	-0.2854363
245	0xbe96de7a	-0.2946661
246	0xbeac2345	-0.3362066
247	0x3e25d844	0.1619578
248	0x3f74b734	0.95592046
249	0xbf5eb820	-0.869997
250	0x3ea950bb	0.33069405
251	0xbf1dfe3e	-0.6171607
252	0x3e0cde75	0.13756736
253	0xbf1e900c	-0.6193855
254	0xbdadcb6a	-0.08486064
255	0x3e0f8154	0.14014179

gru.weight_hh_l0 f4 [192, 64]
0	0xbea751c4	-0.3267957
1	0x3e035240	0.12824345
2	0xbd172d4b	-0.03690843
3	0x3db7b950	0.089708924
4	0x3dc6b571	0.09702576
5	0xbd4082da	-0.04699979
6	0xbe47aee3	-0.19500308
7	0x3d509048	0.050918847
8	0x3e8f7b36	0.2802369
9	0xbea3bf15	-0.31981722
10	0xbe445270	-0.19172072
11	0x3f0d09cf	0.5509309
12	0xbe62d8ca	-0.22153011
13	0x3e407144	0.18793207
14	0xbe243003	-0.1603394
15	0xbe481062	-0.195375
16	0x3d89395f	0.06700396
17	0xbeea740d	-0.45791665
18	0x3f67e852	0.9058887
19	0x3d8bbb71	0.06822861
20	0xbe172435	-0.14759906
21	0x3e78d235	0.24298938
22	0x3dca5af8	0.09880632
23	0xbe6058ae	-0.21908829
24	0x3d95a27e	0.073063836
25	0xbe5f562a	-0.21810213
26	0x3d010803	0.03150178
27	0xbf1c2824	-0.6099875
28	0x3d1d8379	0.03845546
29	0xbec73dd6	-0.38914365
30	0xbe1493f0	-0.14509559
31	0xbe59b31c	-0.21259731
32	0xbe8e01fd	-0.27735892
33	0x3d9be832	0.07612647
34	0x3d1ca554	0.038243607
35	0x3d505235	0.05085965
36	0xbefea6de	-0.49736685
37	0x3ea6f5a6	0.3260929
38	0xbdda0c4f	-0.10646879
39	0xbdff78b9	-0.12474198
40	0x3e6b65c5	0.22988041
41	0x3d89d6c4	0.067304164
42	0xbf035fff	-0.51318353
43	0xbddc4801	-0.10755921
44	0x3e547551	0.20747878
45	0x3e914b3a	0.28377706
46	0x3eaf9704	0.34294903
47	0xbdc7e99b	-0.097613536
48	0xbe17f529	-0.14839615
49	0x3dc52148	0.096254885
50	0x3e3c3e07	0.18383037
51	0x38ea738c	0.00011179512
52	0x3daaa8cc	0.08332977
53	0x3e097235	0.13422473
54	0x3c55364c	0.013013434
55	0xbe8c2399	-0.2737091
56	0xbe2c7569	-0.16841663
57	0xbe3fc885	-0.18728836
58	0xbe968c07	-0.29403707
59	0x3dd8e5d2	0.1059071
60	0x3d0c7b2a	0.034297146
61	0x3e17c9ae	0.14823028
62	0xbe70090b	-0.2344095
63	0x3d876001	0.06610108
64	0xba6a308a	-0.00089336245
65	0x3cc24d54	0.023718514
66	0x3d0383ac	0.032107994
67	0x3d13ad45	0.036053915
68	0xbe49731a	-0.19672814
69	0xbe837796	-0.25677174
70	0xbd90f8b4	-0.07078686
71	0xbe889b93	-0.26681194
72	0x3ddb969e	0.10722087
73	0x3ee8ff9a	0.4550751
74	0x3d858d54	0.06521097
75	0x3d96b150	0.073580384
76	0x3c55edc4	0.013057176
77	0xbe40af40	-0.18816853
78	0xbe2d2b73	-0.16911106
79	0x3e3529bc	0.17691702
80	0xbdabd146	-0.08389525
81	0x3eb7aa7f	0.35872266
82	0x3e49167a	0.1963748
83	0xbd3ad3e0	-0.045612216
84	0x3e001f2a	0.12511888
85	0x3ed4e86b	0.4158357
86	0x3eca64a6	0.39529914
87	0xbe275ba2	-0.16343549
88	0x3e569af9	0.20957555
89	0x3c47b7b7	0.012189797
90	0x3e4a21ca	0.19739452
91	0x3d536420	0.05160916
92	0x3dd0523f	0.10171937
93	0xbd41ce8a	-0.04731611
94	0x3ea5e2a7	0.32399485
95	0xbc92de7e	-0.017928358
96	0xbe53f86b	-0.20700233
97	0x3dc0663b	0.09394499
98	0xbe8cb9d1	-0.27485517
99	0x3e4ab123	0.19794135
100	0xbe266b90	-0.1625197
101	0xbe71669e	-0.23574302
102	0x3d3220b0	0.043488204
103	0x3e039df3	0.12853222
104	0xbdd5c4c9	-0.104379244
105	0x3d036951	0.03208286
106	0xbeb620d6	-0.35571927
107	0x3ed1e65d	0.40996066
108	0x3e6d90ea	0.23199812
109	0x3da78fb6	0.081817076
110	0x3e460012	0.19335964
111	0xbee74cc0	-0.45175743
112	0x3e7f1840	0.24911594
113	0xbd475612	-0.048666067
114	0xbc00d916	-0.007864257
115	0x3e05896a	0.130407
116	0x3d67cc6c	0.056591436
117	0xbeae3060	-0.34021282
118	0x3ec8a67d	0.3918952
119	0xbed4acb2	-0.41538006
120	0xbdbd8e5b	-0.09255668
121	0xbd6b2bd0	-0.05741483
122	0xbe06ddcd	-0.13170548
123	0x3d8f4484	0.0699549
124	0x3d929789	0.07157809
125	0x3dc72805	0.0972443
126	0xbcc255b6	-0.02372251
127	0xbe869c68	-0.26291203
128	0x3e12d78b	0.14340036
129	0xbe9df8e9	-0.30853966
130	0xbd7409b0	-0.05957955
131	0x3d9bb982	0.07603742
132	0x3cf772fb	0.030206194
133	0xbc8f83a8	-0.017518833
134	0xbe641a16	-0.22275576
135	0x3dc95b7d	0.09831903
136	0x3e9941ee	0.29933113
137	0x3df4e0f9	0.11956973
138	0xbb4452a3	-0.0029956482
139	0x3e1d9d5b	0.15392058
140	0xbced165a	-0.028941322
141	0xbded176f	-0.11576735
142	0xbe1f1d8d	-0.15538616
143	0xbe1aa3b2	-0.15101507
144	0x3e53de1e	0.206902
145	0xbe726291	-0.23670413
146	0x3dcbd70c	0.09953126
147	0x3dda2a33	0.1065258
148	0xbe8728ee	-0.26398414
149	0x3e90dc06	0.28292865
150	0x3df7a610	0.12092221
151	0xbcd8ebf1	-0.026479693
152	0xbdcfea3b	-0.10152098
153	0x3d3b27c1	0.04569221
154	0x3e9d9f7a	0.30785733
155	0x3e9bd857	0.30438492
156	0xbe0c99f8	-0.1373061
157	0x3e543b7f	0.20725821
158	0x3e19beb1	0.15014149
159	0xbc7a05e6	-0.015260195
160	0x3cc5eea0	0.024161637
161	0xbe267b9d	-0.16258092
162	0x3e0e8840	0.13919163
163	0xbddae0db	-0.10687419
164	0xbe683350	-0.22675824
165	0x3e5e25d1	0.21694113
166	0xbe69c720	-0.22829866
167	0xbd9bb8fe	-0.07603644
168	0xbe24e36c	-0.1610238
169	0x3e37c1bc	0.17944998
170	0xbd491d0e	-0.049099974
171	0xbe963402	-0.29336554
172	0xbe381ad4	-0.17978984
173	0x3e9f1f02	0.31078345
174	0xbdec7dba	-0.11547418
175	0x3b6c3d81	0.0036047401
176	0xbd65b6aa	-0.056082405
177	0x3d34d324	0.044146672
178	0x3d7428b6	0.059609137
179	0xbd18a85d	-0.03726994
180	0x3ca4125c	0.020028286
181	0x3e66db92	0.22544697
182	0x3d2a919f	0.04164278
183	0x3e05a7de	0.13052318
184	0xbe1fc5ea	-0.15602842
185	0xbdc20216	-0.09473054
186	0xbcca9130	-0.024727434
187	0xbd8d47df	-0.06898474
188	0x3de6b9f5	0.11265937
189	0x3e865cf2	0.26242787
190	0x3e0c7ef4	0.13720304
191	0x3c964dad	0.018347586
192	0x3d0a352d	0.03374212
193	0x3dff507a	0.124665216
194	0xbd2cf474	-0.042225316
195	0xbdc0fa61	-0.09422756
196	0x3e23c4ca	0.15993038
197	0x3e052c1c	0.13005108
198	0xbcc05101	-0.023476126
199	0x3e7e983a	0.24862757
200	0xbdebeb38	-0.11519474
201	0xbe715baa	-0.23570123
202	0xbbeb92c7	-0.007189128
203	0x3d02f1d2	0.0319689
204	0xbdb0c430	-0.0863117
205	0x3a5fd533	0.0008538544
206	0xbd1714d3	-0.036885094
207	0xbd998d10	-0.07497609
208	0x3d58fb1b	0.052973848
209	0xbe679f4a	-0.22619358
210	0x3d86f0db	0.06588908
211	0x3e1a2ce4	0.15056187
212	0xbc4609e7	-0.012087322
213	0x3c5fc346	0.013657397
214	0xbc4c22d9	-0.01245948
215	0x3df75dc1	0.12078429
216	0x3d8aea27	0.06782942
217	0xbe1b79f3	-0.15183239
218	0xbdd4e2fc	-0.10394856
219	0x3d60faa9	0.05492655
220	0x3dd4ca1f	0.10390114
221	0xbe22ba87	-0.15891467
222	0xbdabf92d	-0.08397136
223	0xbe3ebc3b	-0.18626492
224	0x3e7da6b3	0.24770622
225	0xbcd05a5e	-0.025433715
226	0x3c68aeeb	0.01420186
227	0xbe487b5e	-0.19578311
228	0x3ce63172	0.02809975
229	0x3e3de69c	0.18545002
230	0xbc6abee8	-0.014327742
231	0x3db1264f	0.08649885
232	0x3dbc3307	0.0918942
233	0x3dd4db87	0.10393434
234	0xbd4d5763	-0.050132167
235	0xbe8a6cec	-0.27036226
236	0xbd8e3dc8	-0.069453776
237	0xbd82246d	-0.06354604
238	0x3e31f5d2	0.1737893
239	0x3e0c32de	0.1369128
240	0xbd2edb1f	-0.04268944
241	0xbd932a15	-0.07185761
242	0xbd043ddd	-0.03228556
243	0x3d843ec7	0.06457286
244	0x3d0c3c80	0.034237385
245	0x3e8ba069	0.2727082
246	0xbe79128f	-0.24323486
247	0x3db0073a	0.08595128
248	0xbe88c151	-0.2670999
249	0x3e052cf0	0.13005424
250	0xbdb146e1	-0.08656097
251	0xbb5d273e	-0.0033745314
252	0x3e44b499	0.19209518
253	0x3d8b77f9	0.06809992
254	0xbe0f625a	-0.14002362
255	0x3e495d80	0.19664574

gru.bias_ih_l0 f4 [192]
0	0x3cbe15d5	0.02320377
1	0x3cd2b7ef	0.025722472
2	0x3d093cd0	0.03350526
3	0x3dad324d	0.0845686
4	0xbe3d0bbf	-0.18461512
5	0xbd94c330	-0.072637916
6	0xbe2539f5	-0.1613539
7	0x3d7f6362	0.06235064
8	0xbdd31980	-0.10307598
9	0xbeb4feb1	-0.35350564
10	0x3d85b68b	0.06528958
11	0xbdf17d9c	-0.11791536
12	0x3e0150b1	0.12628438
13	0xbe0f0b39	-0.13969125
14	0xbd64b464	-0.055836096
15	0xbddea64b	-0.108715616
16	0xbe471652	-0.19442108
17	0xbd5e17b5	-0.054221828
18	0xbe0d24f0	-0.13783622
19	0xbdb3edc8	-0.087855875
20	0xbe1c6fd5	-0.15277036
21	0xbcae46d2	-0.021274004
22	0xbd60385a	-0.05474124
23	0x3d053221	0.03251851
24	0xbdd0c5d7	-0.10193985
25	0x3c3f48aa	0.011675039
26	0xbd16eddb	-0.03684793
27	0x3db036f0	0.086042285
28	0x3c3814c9	0.011235424
29	0x3e41c32a	0.18922105
30	0x3dc26c85	0.09493355
31	0x3b97c125	0.004631179
32	0xbde1aada	-0.110189155
33	0xbe725c21	-0.23667957
34	0xbe75d5cf	-0.24007343
35	0xbe372226	-0.1788412
36	0xbd89f5f2	-0.067363635
37	0xbd8a1243	-0.067417644
38	0xbe622d66	-0.2208763
39	0xbe849a51	-0.25898984
40	0x3e08b65a	0.13350812
41	0xbe418630	-0.18898845
42	0x3d971086	0.073761985
43	0xbea2b856	-0.31781262
44	0xbde80ae1	-0.113302
45	0xbde5a7b3	-0.11213627
46	0xbdb8e471	-0.09027947
47	0xbe3d8b5c	-0.18510193
48	0xbde22da4	-0.110438615
49	0xbd973bdf	-0.073844664
50	0xbc1f8e38	-0.009738497
51	0xbd9afdfb	-0.07567974
52	0xbe32fec6	-0.17480001
53	0xbeb56994	-0.35432112
54	0x3d8d7aed	0.06908212
55	0xbe15eecc	-0.14641875
56	0x39149ec9	0.00014173532
57	0x3cfb3634	0.030665495
58	0xbcd83eb3	-0.026397085
59	0xbd3650f8	-0.04451081
60	0xbe501480	-0.2032032
61	0xbc9be82a	-0.019031603
62	0xbda973fd	-0.08274076
63	0x3d46da3b	0.048547965
64	0xbd1c1338	-0.038104266
65	0x3dbd9f05	0.09258846
66	0x3f2e683f	0.68127817
67	0x3ea88eda	0.32921487
68	0x3e26bdcc	0.1628334
69	0x3e85efb2	0.26159436
70	0x3c2b670f	0.010461583
71	0x3e9ee58d	0.31034508
72	0x3dd25b9f	0.102713816
73	0x3db2c605	0.087291755
74	0x3e7ac876	0.24490532
75	0x3e0ceb61	0.13761665
76	0x3eddc6eb	0.43315825
77	0x3e8bdb49	0.2731574
78	0x3d61a9c9	0.05509356
79	0x3e702573	0.23451786
80	0x3ea4ca48	0.32185578
81	0x3db38fb3	0.08767643
82	0xbaf4f3f9	-0.0018688432
83	0x3d39875e	0.04529511
84	0x3d0e46d7	0.034735527
85	0x3ef618bc	0.48065746
86	0x3e5c9e60	0.2154479
87	0x3ec87ec8	0.39159226
88	0x3ea05213	0.31312618
89	0x3f06b10f	0.5261392
90	0x3eeb58a3	0.45966062
91	0xbf1e9180	-0.61940765
92	0x3e78202e	0.24231026
93	0xbd19ffec	-0.03759758
94	0xbdf6b0e9	-0.12045462
95	0xbcdfffdd	-0.027343685
96	0xbe9eca99	-0.31013945
97	0xbdf0da1e	-0.117603526
98	0x3e80fa72	0.25191075
99	0x3ed3dd02	0.41379553
100	0xbe62a2db	-0.22132437
101	0xbe5cc949	-0.21561159
102	0x3e090f54	0.13384753
103	0xbcdd5dda	-0.027022291
104	0xbedaa6d8	-0.42705417
105	0x3d888aac	0.066670746
106	0x3eb98c86	0.36240023
107	0x3dc3e335	0.09564821
108	0x3e8fb0b7	0.2806451
109	0x3e939478	0.2882421
110	0x3ec2bb9c	0.3803376
111	0x3e265f7e	0.16247365
112	0x3e98a089	0.2980998
113	0xbcf5c5d4	-0.030001558
114	0x3ea16d42	0.3152867
115	0x3d64bbe1	0.055843238
116	0x3f02d623	0.51107997
117	0x3ded6942	0.11592342
118	0x3d7fe4aa	0.06247393
119	0x3dc15d96	0.09441678
120	0x3eb91293	0.36146984
121	0xbd86e0ce	-0.06585847
122	0xbeabb5f9	-0.33537272
123	0x3e2a646f	0.16639875
124	0xbe5a40ce	-0.21313784
125	0x3e69a625	0.22817285
126	0x3f1a49d1	0.60268885
127	0x3e3c4d2f	0.18388818
128	0x3e5ac7a0	0.21365213
129	0xbd66fc2c	-0.056392834
130	0x3e0035b3	0.12520485
131	0x3c1fc7f5	0.009752263
132	0x3d7c1794	0.061545923
133	0xbdcee9e1	-0.101032026
134	0x3e150cc1	0.14555646
135	0x3cb80962	0.022465412
136	0xbd9de765	-0.07710151
137	0xbd5ede92	-0.05441148
138	0x3c4dc8f3	0.012560117
139	0x3d681b95	0.05666693
140	0xbcde16b5	-0.027110437
141	0x3d48c353	0.0490144
142	0xbdfa8224	-0.122318536
143	0xbbae7b22	-0.005324737
144	0x3e58d6b5	0.21175654
145	0x3cebdd8d	0.028792167
146	0x3e28ee11	0.16497065
147	0x3c8982b2	0.016785953
148	0xbdbea719	-0.09309215
149	0x3e09943a	0.1343545
150	0x3dbb622a	0.09149583
151	0x3d118ef2	0.035536714
152	0x3d570499	0.05249462
153	0xbdb30113	-0.08740439
154	0x3babe8b9	0.0052462486
155	0x3c329e40	0.010901988
156	0x3e0a9798	0.13534391
157	0xbe887fb9	-0.26659945
158	0xbe04c07d	-0.12964053
159	0xbd6892bc	-0.05678056
160	0xbd2d9926	-0.04238238
161	0xbcca885f	-0.02472323
162	0x3cf0c6c3	0.029391652
163	0x3d1eb897	0.038750257
164	0xbe141bd5	-0.14463742
165	0xbcd61a99	-0.02613573
166	0x3a9cda76	0.0011966962
167	0xbcf28ada	-0.029607225
168	0x3cf5b4b5	0.029993394
169	0xbd505c87	-0.05086949
170	0x3cd965d7	0.026537819
171	0xbdac0fa0	-0.08401418
172	0xbd9a7b59	-0.07543058
173	0xbdc2a6f6	-0.095045015
174	0x3d526d8d	0.051374007
175	0xbd51b425	-0.05119719
176	0xbda1eb9f	-0.07906269
177	0x3e04bd87	0.12962924
178	0x3d3e8e91	0.04652268
179	0x3d9d5fed	0.07684312
180	0xbe4ebdd8	-0.20189607
181	0x3c1a217c	0.009407397
182	0xbe0e8fdb	-0.13922064
183	0xbda51d06	-0.080621764
184	0xbe15e54d	-0.14638253
185	0x3e119c31	0.14219739
186	0xbe2467f2	-0.16055277
187	0xbd2f716f	-0.042832788
188	0xbde9015e	-0.11377214
189	0x3e091102	0.13385394
190	0xbdc0f070	-0.0942086
191	0x3da48794	0.08033672

gru.bias_hh_l0 f4 [192]
0	0xbdfff58e	-0.12498008
1	0xbd3fc497	-0.046818342
2	0xbda70776	-0.0815572
3	0x3d867374	0.0656499
4	0xbd94958e	-0.07255088
5	0xbe854890	-0.26031923
6	0xbe4a948c	-0.19783229
7	0xbe0235de	-0.12715861
8	0x3d73a7b5	0.05948611
9	0xbea06d5a	-0.3133343
10	0x3d707968	0.058709532
11	0xbe24c88c	-0.16092128
12	0xbd9efbe8	-0.07762891
13	0xbe402490	-0.18763947
14	0x3d6d1806	0.05788424
15	0xbdc6a8a4	-0.097001344
16	0xbd41fcd3	-0.047360253
17	0x3dcb017b	0.09912392
18	0xbe532d1b	-0.20622675
19	0xbd8a001d	-0.06738303
20	0xbe2e95c3	-0.17049317
21	0x3c31047b	0.010804291
22	0xbe47dcff	-0.19517897
23	0xbd55db06	-0.05221083
24	0xbd3a5968	-0.04549542
25	0x3b948c05	0.004533293
26	0xbdf4348b	-0.11924084
27	0xbbeb7245	-0.007185253
28	0xbe048fac	-0.12945431
29	0x3e701f51	0.23449446
30	0x3d384c5d	0.0449947
31	0xbd6ed0e6	-0.05830469
32	0x3c78b4f5	0.015179862
33	0xbe399061	-0.18121482
34	0xbe59ee05	-0.21282203
35	0xbe70e05f	-0.23523091
36	0x3e00cbab	0.12577693
37	0xbde46114	-0.11151329
38	0xbe051f3b	-0.13000195
39	0xbdd37b8f	-0.10326301
40	0x3e55ed4c	0.20891303
41	0xbd9b06c5	-0.075696506
42	0xbdaf8d77	-0.08571904
43	0xbe0f5ddd	-0.1400065
44	0xbddd5a4f	-0.108082406
45	0xbe2c59e7	-0.1683117
46	0xbe217317	-0.1576656
47	0xbc0d2b0e	-0.008616222
48	0x3e033fb7	0.12817274
49	0x3cf2cc3c	0.029638402
50	0xbdd4bf65	-0.10388068
51	0xbba0d99b	-0.004908753
52	0xbe2ece74	-0.17070943
53	0xbe91af2f	-0.28453967
54	0xbe314f55	-0.17315419
55	0xbe024c59	-0.12724437
56	0x3db6b3a5	0.08920983
57	0xbde8b80f	-0.113632314
58	0x3d1e84df	0.038700934
59	0xbe699e57	-0.22814308
60	0xbdf090b2	-0.117463484
61	0xbe211556	-0.15730795
62	0x3bb53394	0.00552983
63	0x3d9bd58d	0.07609091
64	0xbde630f0	-0.11239803
65	0x3dd96259	0.106144615
66	0x3f0c5883	0.5482256
67	0x3ed260f4	0.41089594
68	0x3da7e27c	0.08197495
69	0x3e437d78	0.19090831
70	0x3deff1a7	0.117160134
71	0x3eb169f8	0.3465116
72	0x3e84efc1	0.25964168
73	0x3d83b417	0.06430834
74	0x3e554a8a	0.20829216
75	0x3e4ca4b0	0.19984698
76	0x3e9974a0	0.2997179
77	0x3ec16e1e	0.37779325
78	0x3e1a2f7b	0.15057175
79	0x3e2cba67	0.16867982
80	0x3eb3ef74	0.35143626
81	0x3e819042	0.25305372
82	0xbb882a54	-0.0041554365
83	0x3e31ffe9	0.17382778
84	0xbe1bbd0b	-0.15208833
85	0x3eb831de	0.35975546
86	0x3e377906	0.1791726
87	0x3e981954	0.29706824
88	0x3e58e702	0.21181872
89	0x3f113bfd	0.5673216
90	0x3e871d85	0.2638971
91	0xbf0f4c6e	-0.55976
92	0x3e40eeb5	0.1884106
93	0xbe6ffd68	-0.2343651
94	0xbd99034c	-0.07471332
95	0x3e355767	0.17709123
96	0xbe542c95	-0.20720132
97	0xbdbca8b7	-0.09211867
98	0x3ec66527	0.38749048
99	0x3eeef9fc	0.46675098
100	0xbe4f6464	-0.2025314
101	0xbe82836f	-0.254909
102	0x3e8c2cba	0.27377874
103	0x3e0c5614	0.13704711
104	0xbf0ac815	-0.5421155
105	0x3da7c889	0.08192546
106	0x3eae138e	0.33999294
107	0x3ce00b8e	0.02734926
108	0x3e9e6766	0.30938262
109	0x3e11afea	0.14227262
110	0x3e8369d5	0.2566668
111	0x3e16a4ba	0.14711276
112	0x3e96f535	0.29483953
113	0xbdc6c8ce	-0.09706269
114	0x3eb74983	0.35798272
115	0xbe0e1a98	-0.13877332
116	0x3eda0528	0.4258206
117	0x3e4631ad	0.19354887
118	0x3e8433fa	0.25820905
119	0x3dc77c82	0.09740545
120	0x3e7dc8b4	0.24783593
121	0xbd87b3cf	-0.06626093
122	0xbeb24cd4	-0.3482424
123	0xbc7cba1d	-0.015425232
124	0xbd6ad27d	-0.057329644
125	0x3ec70598	0.38871455
126	0x3f007123	0.5017263
127	0x3e3bcaa0	0.18339014
128	0x3c99eb4a	0.018788952
129	0x3d00e3b7	0.031467166
130	0x3d76e91e	0.06028091
131	0xbdb28803	-0.087173484
132	0xbdf73597	-0.12070768
133	0x3dbc1bf5	0.0918502
134	0x3d10e865	0.03537788
135	0x3c1a8ceb	0.0094330115
136	0x3c9c18a0	0.01905471
137	0xbdc9a2eb	-0.09845527
138	0xbddc29ce	-0.10750161
139	0x3cbda340	0.023149133
140	0xbd6e4c48	-0.058178216
141	0xbd0642c7	-0.032778528
142	0xbe25f9f1	-0.16208626
143	0xbe19b34e	-0.15009806
144	0x3cfb32b7	0.030663831
145	0xbd2d03ec	-0.04224007
146	0x3d26d443	0.040729772
147	0x3e142756	0.1446813
148	0xbd462424	-0.04837431
149	0xbdaffeb5	-0.085935034
150	0xbd778dc5	-0.060437936
151	0x3d5c794b	0.05382661
152	0xbdd1c4de	-0.102426276
153	0xbdbe8aa1	-0.09303785
154	0x3e0d911d	0.13824888
155	0x3d1025d2	0.03519232
156	0xbc838858	-0.016056225
157	0xbe26451d	-0.16237302
158	0x3d2a5755	0.041587193
159	0x3def5812	0.1168672
160	0x3d49501d	0.049148668
161	0xbc8de62c	-0.017321669
162	0x3e03ba5f	0.12864064
163	0xbd55c845	-0.052192945
164	0xbdba4092	-0.09094347
165	0xbd7f9034	-0.062393382
166	0x3e3a6724	0.18203408
167	0x3daf6905	0.08564953
168	0xbdede25a	-0.11615439
169	0x3dad05d7	0.084483795
170	0xbdf54909	-0.11976821
171	0xbd1e4776	-0.03864237
172	0xbd8c488e	-0.06849776
173	0xbdfe3e26	-0.124141976
174	0xbb7379c6	-0.003715144
175	0x3e10c0bb	0.14136021
176	0xbcb88f20	-0.022529185
177	0x3d22497a	0.039620854
178	0x3ca11ed9	0.01966803
179	0xbc1ea4b9	-0.009682828
180	0xbe1d2423	-0.15345816
181	0xbd93936e	-0.07205854
182	0xbe6c71d2	-0.23090294
183	0xbd866c27	-0.06563597
184	0x3b3c8be8	0.0028769914
185	0x3d0b82a3	0.03406013
186	0xbe04aca7	-0.12956487
187	0xbe214780	-0.15749931
188	0xbe172539	-0.14760293
189	0x3ce16470	0.027513713
190	0xbdc50170	-0.09619415
191	0xbd06a27b	-0.032869797

fc.weight f4 [3, 64]
0	0xbf792090	-0.9731531
1	0x3d9eadf8	0.07748026
2	0x3e408245	0.18799694
3	0x3eb884ba	0.36038762
4	0x3e6e8e55	0.23296483
5	0xbe8c6c31	-0.27426293
6	0xbd97bc0e	-0.074089155
7	0x3e9f2940	0.3108616
8	0x3da36f1c	0.07980177
9	0x3c7e06c3	0.015504542
10	0xbeefcebc	-0.46837413
11	0x3e3379ed	0.1752698
12	0xbe3870b8	-0.18011749
13	0x3e402abf	0.18766306
14	0x3f6de582	0.92928326
15	0x3e0b2073	0.13586597
16	0x3e125c65	0.14293058
17	0xbf85addb	-1.0443681
18	0xbebc090a	-0.36725646
19	0xbeec1d65	-0.46116176
20	0x3f035b84	0.51311517
21	0x3e94431a	0.28957444
22	0xbd1df31a	-0.038561918
23	0x3ec05530	0.37564993
24	0x3d92b25c	0.071629256
25	0xbeb62983	-0.35578546
26	0x3eabecaf	0.33579013
27	0xbd9b7a6e	-0.07591711
28	0x3de311d9	0.110873885
29	0x3f8e582a	1.1120656
30	0x3f480f80	0.7814865
31	0x3ecfb972	0.4057117
32	0x3eacb498	0.33731532
33	0x3ef62005	0.48071304
34	0x3e53a42f	0.206681
35	0x3e5df706	0.21676263
36	0x3f248504	0.64265466
37	0xbdb1f39d	-0.08689044
38	0x3b4d84df	0.0031359715
39	0xbe582777	-0.21108805
40	0x3f32894a	0.69740736
41	0x3ebb0418	0.3652656
42	0x3d4a7542	0.049428232
43	0xbde9d8ed	-0.114183284
44	0x3f0239f0	0.50869656
45	0x3f0fff2b	0.5624873
46	0x3ee2abd2	0.44271713
47	0x3d86aab0	0.06575525
48	0xbdd986c4	-0.10621408
49	0xbf9f31f8	-1.2437124
50	0xbe91d03b	-0.2847918
51	0xbdfab87c	-0.12242219
52	0x3d6ff3eb	0.058582228
53	0x3ee84069	0.4536164
54	0x3d9aec35	0.07564584
55	0x3d2531e3	0.04033078
56	0xbe1fa330	-0.15589595
57	0xbf115daa	-0.56783545
58	0x3e10b4c3	0.14131455
59	0x3ea9e9b7	0.33186123
60	0x3e9d7275	0.30751386
61	0xbb4a042b	-0.0030825238
62	0xbebe8221	-0.37208655
63	0x3ebe6fce	0.37194675
64	0x3f3a2c5c	0.7272394
65	0x3e216c40	0.1576395
66	0x3e709295	0.23493417
67	0x3d8cc77e	0.068739876
68	0xbda80521	-0.08204103
69	0x3a934c5b	0.0011237966
70	0x3eca3bba	0.39498693
71	0xbdd29773	-0.10282793
72	0x3e564b8b	0.20927255
73	0x3e912a7b	0.28352723
74	0x3dee4b9a	0.116355136
75	0xbe88b866	-0.26703185
76	0xbe91b091	-0.28455022
77	0x3ea453e7	0.32095262
78	0xbf7c2c38	-0.9850497
79	0xbf0208c9	-0.50794655
80	0x3e4db8d2	0.20090035
81	0x3f58fad9	0.84757763
82	0x3efb69b5	0.49104086
83	0xbdf00d33	-0.117212676
84	0xbf2756ff	-0.6536712
85	0xbc01f05b	-0.00793084
86	0xbdf62cc2	-0.120202556
87	0xbd87328e	-0.066014394
88	0x3d4d7bff	0.05016708
89	0xbe3d9f6a	-0.18517843
90	0x3e7440b6	0.2385281
91	0x3e1707da	0.14749089
92	0x3e9cfd9f	0.30662248
93	0xbf8bcc12	-1.0921652
94	0xbea01ca9	-0.31271866
95	0x3ca86851	0.020557554
96	0xbd40b90b	-0.04705147
97	0x3e0530b5	0.13006862
98	0x3e277977	0.16354929
99	0x3e988403	0.29788217
100	0xbf4dc095	-0.8037198
101	0x3e2e48e9	0.1702
102	0x3e977c55	0.29587045
103	0x3e8e2901	0.27765658
104	0xbf6e67e4	-0.93127275
105	0xbf17554c	-0.5911453
106	0xbe10d16e	-0.14142391
107	0xbe528989	-0.20560278
108	0xbf0426b8	-0.5162158
109	0xbe2b942e	-0.16755745
110	0xbe9cca6b	-0.30623183
111	0x3e25f2bf	0.16205882
112	0xbeacdebe	-0.3376369
113	0x3f857c21	1.0428506
114	0xbe43931b	-0.19099085
115	0x3f00784d	0.50183564
116	0xbeea2d7b	-0.45737824
117	0xbe697623	-0.22798972
118	0xbece7bb0	-0.4032874
119	0xbdcf2b63	-0.10115697
120	0xbe4a1a8c	-0.1973669
121	0x3e5faf7f	0.2184429
122	0x3e20ecf9	0.15715398
123	0xbe1d3347	-0.15351592
124	0xbefca511	-0.49344686
125	0x3dcf8592	0.101328984
126	0xbe315ac6	-0.17319784
127	0x3dca2800	0.09870911
128	0x3e4e0154	0.20117694
129	0xbe571bbf	-0.21006678
130	0xbf631605	-0.88705474
131	0xbf5adf18	-0.85496664
132	0xbeea5401	-0.45767215
133	0x3e2963ad	0.1654193
134	0xbd91aa3d	-0.071125485
135	0xbedf61db	-0.43629345
136	0xbec7e998	-0.39045405
137	0xbe9aacb5	-0.3020989
138	0x3f319794	0.69371915
139	0x3ced85ad	0.028994406
140	0x3fa3b08a	1.278825
141	0xbf74b817	-0.955934
142	0x3def2fdc	0.1167905
143	0x3f054758	0.52061987
144	0xbf3bbb80	-0.7333298
145	0x3f0d2e1a	0.5514847
146	0xbe670002	-0.22558597
147	0x3f35c9c6	0.71011007
148	0x3e882fff	0.26599118
149	0xbf478532	-0.77937615
150	0x3ece730a	0.40322143
151	0xbf10d563	-0.565756
152	0xbeafc81f	-0.34332368
153	0x3fc3e68d	1.5304734
154	0xbfb5e386	-1.421006
155	0xbe481e97	-0.19542919
156	0xbf0cfbe2	-0.5507184
157	0x3d11d496	0.03560313
158	0xbf097f11	-0.5370951
159	0xbf96d2a3	-1.1783031
160	0xbf64b749	-0.8934217
161	0xbf06957c	-0.52571845
162	0xbf8439ee	-1.0330179
163	0xbea75703	-0.32683572
164	0x3d5b98c0	0.05361247
165	0x3cf9b131	0.03048
166	0xbe72a811	-0.23696925
167	0x3c56c01a	0.013107324
168	0x3eb4881b	0.3526009
169	0x3ea7a53e	0.32743257
170	0xbdd1fc7d	-0.102532364
171	0x3ec4428f	0.3833203
172	0x3de967ae	0.113967285
173	0xbe9643fb	-0.2934874
174	0xbe803ab3	-0.25044784
175	0xbedc9ac4	-0.43086827
176	0x3fa8782b	1.3161672
177	0x3ea86cef	0.3289561
178	0x3f0ed5e2	0.5579511
179	0xbf9e11bd	-1.2349163
180	0x3f63950b	0.88899297
181	0xbeb648c3	-0.35602388
182	0x3fb406fa	1.4064629
183	0x3e794aa1	0.24344875
184	0x3faa1084	1.328629
185	0x3f24bd5e	0.6435145
186	0xbe6a4061	-0.22876121
187	0xbcc3ccc8	-0.023901358
188	0x3ee7df78	0.4528768
189	0xbf3e84a9	-0.74421173
190	0x3fae91a9	1.3638202
191	0xbee77f18	-0.45214152

fc.bias f4 [3]
0	0xbbc88f31	-0.0061205854
1	0x3def8519	0.11695308
2	0xbeab1087	-0.33411047
