gru_model.pth (torch, 63260 bytes, 6 tensors)

gru.weight_ih_l0 f4 [192, 12]
00000000: 31dd b3bf 9948 27bd a6f4 02c0 3b24 03c0
00000010: ec19 943e 5e8e 273e a922 e03e 6a5b d73f
00000020: dafe 58be 597b 893e 06b8 eb3f 90f6 a3be
00000030: c2f9 233f 06a6 06be 98cb 423f 2246 86bf
00000040: 2e0e 6c3f 7af2 893e 8e7b 91bf e720 5b3f
00000050: f226 abbc bdf4 1cbe 0188 6f3f d1d8 fcbe
00000060: f6e2 17be d3e6 88bf 686b 91bd 4de1 50bf
00000070: 3efc dabd c88b 01bf ab02 8dbf 82b7 cb3f
00000080: 2b73 14bf b299 3dbf 2a5c 833f 5e9a 87bf
00000090: e163 16be d89d 213e d984 e53e 1666 e1bf
000000a0: 0bde 96be e9f7 443f a095 8c3f d982 453f
000000b0: 0918 203f 8110 6a3f 9462 58bf 8655 463f
000000c0: 052e 5dbf bb52 a63d 1c89 29bf e89d 7dbe
000000d0: a214 023e 3804 913e 5c1c 6e3e 5026 f9be
000000e0: e31a 853f 7ba8 5bbe c244 b23f e401 d13f
000000f0: f674 69bf 386a 8d3f 2083 8fbf b325 b43f
00000100: 8733 fa3e d57c 2abf 9783 bd3e bd69 5cbf
00000110: 28bb 183f 0e91 c7bf 9cb1 983f 2d1c 64bf
00000120: 9da0 8d3e fdb2 593e 1e3e b43f 73c4 203f
00000130: e0f5 9e3e 48a2 523f 04d4 773f e745 fe3e
00000140: 1f60 39bf a4fd 1c3e 7b78 fcbf eeb2 74bf
00000150: f0fd 8c3d 2a3c d73e 847c 3cc0 34ae 2fbe
00000160: ce7c 9c3e 39e9 823f 2466 e83f b5d8 70bf
00000170: 1dd3 483f 2d9c ad3e 9b03 a03f bbaa 54bd
00000180: 3acd 6c3f be29 e5bd 38f2 0540 46e6 2bc0
00000190: 5ef1 023d b519 6e3e 717a 793f b7cc e53e
000001a0: d98e 2a3f eaf0 603e e37e 55c0 1f5c 623f
000001b0: cdc1 00be 5dba 55be 97b7 a8be 2e11 813f
000001c0: 7795 223e f94a 7bbe 5093 61bf 0706 dbbe
000001d0: 30d8 343f 1535 023e 08fd a33f cec8 5d3e
000001e0: ef5a 873e 36e2 53bf f0af 1c3f dada debd
000001f0: 067d 1c3f 782e 333d b0a6 343f 975b 07bf
00000200: a217 12bf 99eb 813f 64d2 71bf 26de d73e
00000210: d5cc 643d 6dc2 283f 3231 79be 86a4 5a3f
00000220: 776c 963e 88a7 56be c8c6 c2be 6b55 963d
00000230: 1d1e dc3d a6eb 12be 32b4 d83e 1895 3bbf
00000240: 1a70 adbd ce4a 833f d7aa 803e 4d84 8c3f
00000250: c5ff 86be 7928 89bd e1bf f9bf d42a 1fc0
00000260: a35c 123d 90aa 1e3f 32a4 fc3f 18e8 d03f
00000270: 30bf 5d3e 0a54 fd3e fde7 b0be ca90 963e
00000280: a7a2 853d 2fa5 1840 b16e 083f 0d55 3040
00000290: 642c f1be 33b4 4bbf b4a3 3ebf e33b 2fc0
000002a0: 3d90 11bf 6992 08bc e6c4 06c0 6b1d 773d
000002b0: a69a 6c3f 44a9 123e 4d8a 2140 fa75 cfbd
000002c0: d91b 3abe 4af1 063f d6f5 a1be d252 8e3e
000002d0: 48c2 0f3f 59ce 0d3e 53c0 c1be e589 e33e
000002e0: eaf3 c63d d4f0 14bf 12ab bfbe 417c dabe
000002f0: e20a a43d 086c 823f 62de 643e 373e febe
00000300: 0df8 633e 0d2d 21bf 28d6 7c3f 0702 5c3e
00000310: 1762 5b3e 9970 333f fd06 bc3f ee38 d63f
00000320: 1f88 b53e 21f4 87bf 7163 3fc0 e63e 16c0
00000330: b5f9 6cbe 18e7 c9bf 1f3a c03e f6e5 c4bf
00000340: 641b 7c3d 5c3b 5c3e ee60 0a3e d654 9a3f
00000350: 2da3 d53d fd0b 8bbe baf2 46bf 8038 693e
00000360: 7122 593f 15b5 2f3f 9b51 913e 97f1 803f
00000370: 17e7 99be d601 ca3d 69bf 65be 41b7 623f
00000380: 46dc 15be 9832 b5bf bf29 ecbd b5f1 07c0
00000390: acf9 ccbe 64d2 07bf 5f34 bebf 9b18 14bf
000003a0: fece a53f a4ab 82bf ed80 3940 b4f1 5b3f
000003b0: 78f0 b53e 9229 a2be 7362 dfbf 5210 0dbf
000003c0: 3159 88be 1414 d2be cbe7 1f3f b02c 783e
000003d0: e1dd 54bf 9807 4b3e cf50 11c0 a99d ce3e
000003e0: 3b87 75bf 78ad 95be 2234 b83f 257d b0be
000003f0: b7ce 73bf 6bae 5b3d 8a33 563e 29a4 b9bf
-1.4051877 -0.04084072 -2.0461822 -2.0490863 0.28926027 0.16362903 0.43776444 1.6824772
-0.21190968 0.2685192 1.8415534 -0.3202405 0.64052975 -0.1314927 0.7609191 -1.0490153
0.92209136 0.26942807 -1.1365831 0.8559708 -0.020892594 -0.15327735 0.935669 -0.49384168
-0.14832672 -1.0695442 -0.07100564 -0.8159378 -0.10692643 -0.50603914 -1.1016439 1.5915377
-0.5798823 -0.74062645 1.0262501 -1.0593984 -0.14686538 0.15782869 0.44827917 -1.7609279
-0.2946628 0.7694078 1.0983162 0.7715278 0.62536675 0.9143143 -0.8452542 0.7747425
-0.86398345 0.08121248 -0.6622484 -0.24767268 0.12703183 0.2832353 0.23253006 -0.48662043
1.039883 -0.21450989 1.3927233 1.6328702 -0.91194093 1.104804 -1.1211891 1.4074005
0.48867437 -0.6659673 0.37014458 -0.86098844 0.5966058 -1.5591142 1.1929202 -0.8910549
0.276616 0.21259685 1.4081457 0.6279976 0.31046963 0.8227887 0.96807885 0.49662706
-0.72412294 0.15331131 -1.9724268 -0.95585525 0.06884372 0.4203809 -2.9450998 -0.17156297
0.30563968 1.0227424 1.8156171 -0.9408067 0.78447133 0.33908215 1.25011 -0.051920634
0.9250065 -0.11189602 2.0929089 -2.6859298 0.031968467 0.23251994 0.97452456 0.44882748
0.6662422 0.21966901 -3.3358696 0.88421816 -0.12573929 -0.20871873 -0.32952568 1.0083368
0.15877329 -0.24540319 -0.88115406 -0.42778036 0.70642376 0.12715562 1.2811594 0.21658632
0.26436564 -0.82767045 0.6120596 -0.108815864 0.6112827 0.043745488 0.70566845 -0.5287413
-0.5706731 1.0150024 -0.94461656 0.42161673 0.055859406 0.6592167 -0.24335173 0.8540729
0.29379627 -0.20962346 -0.38042283 0.07340511 0.10747931 -0.14347705 0.42324978 -0.73274374
-0.08468647 1.0257204 0.2513034 1.0977875 -0.26367012 -0.06697173 -1.9511682 -2.486989
0.035732877 0.6197901 1.9737608 1.6320829 0.21654963 0.4947818 -0.34551993 0.2940734
0.06525164 2.385082 0.532939 2.755191 -0.4710418 -0.7957184 -0.7446854 -2.7380302
-0.56860715 -0.008335688 -2.1057677 0.06033079 0.92423475 0.14322382 2.5240662 -0.10129924
-0.18174686 0.5271193 -0.3163287 0.27797562 0.56155825 0.13848247 -0.37842044 0.44441143
0.09714492 -0.58179975 -0.37435204 -0.42672923 0.08009888 1.0189219 0.22350457 -0.4965684
0.22262593 -0.6295937 0.98764277 0.21485148 0.21424137 0.70093685 1.4689633 1.6736124
0.35455415 -1.0621377 -2.9904444 -2.347589 -0.2314213 -1.5773649 0.37544343 -1.5382679
0.06154956 0.21507019 0.13513538 1.205714 0.10431514 -0.27157584 -0.7771412 0.2277546
0.8481818 0.68635684 0.28382573 1.0073727 -0.3005912 0.098636314 -0.22436298 0.88560873
-0.14634809 -1.4156065 -0.115314 -2.1241276 -0.40034235 -0.53055406 -1.4859732 -0.57850045
1.2953794 -1.020863 2.898494 0.85915685 0.35535026 -0.3167234 -1.7451919 -0.5510303
-0.26630548 -0.41030943 0.62463063 0.24235797 -0.8315106 0.19827116 -2.2705572 0.4035466
-0.9590947 -0.2923391 1.439091 -0.34470478 -0.95237297 0.053633135 0.20918098 -1.4503223

gru.weight_hh_l0 f4 [192, 64]
00000000: 339f b33e fb4b dabe 891f cfbc 7c1b 38bf
00000010: 99f2 97bd 5480 a33e d6c8 51be 607e 783f
00000020: c899 593e 08c5 ddbe 44a8 5d3e 59de 80be
00000030: 3430 29be 266d 10bf 9a82 6b3e 44a4 83be
00000040: 16ed 283f 9fee 193f a3a4 dcbe 74b4 0cbf
00000050: a580 953e 7911 313e 1d21 4e3d c542 c7be
00000060: c67b 8d3d 45c0 a3be 69c4 993e 8f96 703e
00000070: 7c8c 8cbe 8558 723e ad5c 6dbc ef8c c23e
00000080: 2941 863e 091f 003e 2b63 0e3e 3ca7 e7bd
00000090: 03f0 ac3e 4cf9 e4bc 496d 9bbd b492 9ebe
000000a0: 5111 4e3f 7c32 8bbf 8845 2d3e c8c6 a83e
000000b0: 6ce5 2e3e b52e 813e 154f 9abe fefc 883e
000000c0: 1506 d93e c992 6d3d 1040 60be eefe 4bbf
000000d0: 1c99 5c3f 7f89 be3e 94ef 093f e5a7 30be
000000e0: 3d64 af3d 321d 933d c15b 2c3e 0ed2 3a3e
000000f0: 9326 013d f879 193e 63af 1ebf 09f1 0e3f
00000100: 694e e2be 2e03 ff3e c99f ca3c ad57 d4be
00000110: a458 a23d 9514 113f 9aae a6be adb6 543e
00000120: afa9 c33e 7055 3abf f126 c73c 9e9d 00bf
00000130: 96f3 03bf 6463 1cbb 9032 23be 2765 04bf
00000140: 4ca8 1abe 410e 943f 2bb6 a9bd f8ac 963e
00000150: 2e76 74be 7015 ecbe 8d9f 903e e4ed 1abe
00000160: c2c8 12bd a4c0 de3d b638 683e 90be c83e
00000170: fd1b 60bf d0f8 7f3f 2910 84be 790b 9d3e
00000180: 344b 883f dbf9 053e 4e33 34be 3eee adbe
00000190: e1b3 f2bd 5803 13bf fff0 f3be 071b 4f3c
000001a0: b507 103f 59fe e33d ad2f 0abe d715 21be
000001b0: cdb1 683e f718 bdbe 3b33 eebd 07c9 b0bd
000001c0: f00e 0fbe 31fe df3e 8700 bdbd c3c4 9fbd
000001d0: 8b17 273f e6db 0dbf 7497 973e 4a6c e1bd
000001e0: 93ee f13e 33fa 2c3e 9a3f 0cbf 4ce8 dbbe
000001f0: e0a2 8cbe 3037 2ebd 777c 8b3d 5d46 0a3f
00000200: e3b0 22bf 0575 963d 37d8 ccbe 8347 923e
00000210: ecb9 e0bd ad9e 6e3f 5a94 2cbf 4d51 3a3d
00000220: a439 ca3e a209 6cbf 313c bfbe 3de4 d3be
00000230: 2bc2 fabe be2d 7d3e 0f56 afbe 02bc 91be
00000240: c5b2 03bf d730 b83e cbad e9be f6c4 c73e
00000250: bdc6 593e e1fe 0fbf f827 39be 66e0 07bf
00000260: baa6 c5bd fb1b e23c d171 2a3e 27d0 24bf
00000270: d67b 78be 0858 53be 46db cfbe 1fd3 59bb
00000280: 669a 2dbe 9a7b efbe 893f 7fbe b958 143e
00000290: e829 3b3c 6d3d 54bf d19b 8b3e b16c 353d
000002a0: 5521 50bd 35a5 1b3f 5342 c5be 02a4 87be
000002b0: b4e8 523e c87d 2dbe 22cb a2be fa09 e93e
000002c0: c7ac 24bf d121 933e 610d e83e 0c63 613e
000002d0: c927 083f 368b 823f 3193 473f 1917 003e
000002e0: ec29 ed3e 7c1d a4bd a854 5abf 99b7 b2be
000002f0: 8646 2bbd a37c f2bd 7f33 d43e 9db3 4c3f
00000300: 3d2a 753e 9b2a 07be 36ab ad3e ed02 81be
00000310: 41d0 b23e b4d8 b13c ac2e 92bc fbf0 8b3e
00000320: 797b d43e cdac c6be 47fa 7a3e caef e1be
00000330: 0129 56bf 6d73 df3e c401 8abe 9c8f 25bf
00000340: 2a5c 1d3d 3e17 223e 9fb9 cebe abd3 363e
00000350: 65c0 8dbe d802 cfbe 97ed 22bf 59cf 98be
00000360: 180d 81be 542a 96be 6492 313f 2c88 a2be
00000370: 7281 22bf b4b5 cfbd 1eb0 41be a3e2 323f
00000380: 2953 5cbe b36f b73d fba4 12bf 101a 94be
00000390: 6d46 4bbf fdf6 ca3e ef44 903d 30c6 9d3e
000003a0: 4910 b23e 19e8 9bbe cf6c 0ebe 90c0 2f3e
000003b0: 7dcb 79bc 979f ef3c 3815 3abe 83a7 65bc
000003c0: 208a cebe 3be7 03be 2d70 00bf a94a 993e
000003d0: 81a4 cabe a4a4 27be c6d7 3fbe 1bdd 5ebe
000003e0: cecf c63e 1430 7abf 0310 10bf 85b3 db3d
000003f0: 1acd 3cbf 22cf 3cbe 2451 4b3d e612 27bf
0.35082397 -0.42636093 -0.025283592 -0.7191694 -0.07419319 0.31933844 -0.20486769 0.9706783
0.21250069 -0.43314385 0.2164622 -0.25169638 -0.16522294 -0.5641655 0.2299904 -0.25711262
0.65986764 0.6012973 -0.43094358 -0.5496285 0.2919971 0.17291822 0.050324548 -0.3891813
0.069083735 -0.31982628 0.30032662 0.23494934 -0.2745093 0.2366658 -0.014487428 0.3799815
0.26221588 0.12511839 0.13905017 -0.11311194 0.33776864 -0.027950905 -0.07589204 -0.309713
0.8049517 -1.0874782 0.16921055 0.32964158 0.17079705 0.25230947 -0.3013846 0.26755518
0.42387453 0.058001313 -0.21899438 -0.79685867 0.86171126 0.37214276 0.5388119 -0.17251547
0.08564041 0.07183303 0.16831876 0.18244192 0.031530928 0.14987934 -0.6198637 0.5583654
-0.44200447 0.49807113 0.024734395 -0.4147314 0.07927063 0.5667203 -0.32555085 0.2077281
0.38215396 -0.7278662 0.02431056 -0.50240505 -0.5154356 -0.0023862952 -0.15937257 -0.51716846
-0.15103263 1.156685 -0.08286699 0.2942884 -0.23873207 -0.46110106 0.28246728 -0.1512981
-0.03583599 0.10876587 0.22677884 0.39207888 -0.87542707 0.9998903 -0.2579358 0.30672815
1.064795 0.13083594 -0.17597696 -0.33970827 -0.118507154 -0.5742698 -0.47644803 0.012640721
0.5626176 0.11132497 -0.1349475 -0.15730987 0.22724076 -0.3693311 -0.11630865 -0.08632093
-0.13970542 0.4374862 -0.09228616 -0.07801201 0.652703 -0.55413663 0.29607737 -0.110069826
0.4725233 0.16892318 -0.5478455 -0.42950666 -0.27468014 -0.0425331 0.06810849 0.54013616
-0.6355116 0.073465385 -0.4000871 0.28570184 -0.10972962 0.9321087 -0.67413867 0.04548769
0.394971 -0.922022 -0.3735061 -0.4138507 -0.48976263 0.2472448 -0.34245345 -0.2846375
-0.51444656 0.35974762 -0.45640406 0.39017457 0.21267219 -0.5624829 -0.18081653 -0.5307678
-0.09650941 0.027601233 0.1664498 -0.64380115 -0.2426599 -0.2063905 -0.4059698 -0.003323741
-0.1695343 -0.46773988 -0.2492658 0.1448697 0.011423565 -0.8290623 0.27267316 0.04429311
-0.050813038 0.6079896 -0.38527164 -0.26492316 0.20596582 -0.16942513 -0.31795603 0.45515424
-0.6432614 0.28736737 0.45322707 0.2201044 0.5318571 1.0198734 0.7795897 0.12508811
0.46321046 -0.08013436 -0.85285425 -0.349057 -0.041815303 -0.11840179 0.41445538 0.7996157
0.23941894 -0.13199846 0.33919686 -0.25197545 0.3492451 0.021709777 -0.01784452 0.2733229
0.41500452 -0.38803712 0.24509536 -0.44128257 -0.83656317 0.4364275 -0.26954472 -0.64672256
0.038417973 0.15829179 -0.40375993 0.17854182 -0.27685848 -0.40431857 -0.63643783 -0.29845694
-0.25205302 -0.2932917 0.69364 -0.31744516 -0.6347877 -0.10142079 -0.1891484 0.6987707
-0.21516098 0.08956852 -0.5728299 -0.28926134 -0.79404336 0.39641562 0.07044398 0.30815268
0.3477805 -0.30450514 -0.13908695 0.171633 -0.015246269 0.029250903 -0.18172157 -0.014016989
-0.40339756 -0.12881176 -0.50171167 0.29939774 -0.39578632 -0.16371399 -0.18734655 -0.21764033
0.38830417 -0.9772961 -0.5627443 0.107276 -0.7375046 -0.1843839 0.04963793 -0.6526321

gru.bias_ih_l0 f4 [192]
00000000: 026c 80be 55c3 b5be 0584 07bf c528 2abf
00000010: 95c7 c8bc fe57 a63c e2bd 56bf 8c18 0ebe
00000020: 6b70 58be b78f 12bf c2de bebe cac3 773e
00000030: ebfe 6fbe 2145 973b 3d00 c2be d6c4 85bc
00000040: ce1d 35be e53d 0abf 09ac cdbe b338 7abe
00000050: 4e57 c9be 14b1 3abe 624f e3be 548e e1be
00000060: 9b78 7d3e 2f2a 843d d12d 6dbe ea2b aebd
00000070: e6f7 c1be 5c7e 15bf 10c0 25bf e2dc 86bd
00000080: 4643 c239 1f5b e43d 330e f3bc 87f0 c0bd
00000090: 45a3 473d e18d c0be d76b 7c3e dffb 57be
000000a0: ec0c e7be 1d25 7bbe f193 43bf 335a dabe
000000b0: 016b b3be ee06 8bbe 85d0 d9be 644e ffbe
000000c0: 64fb af3c 709c aabd ef93 97be 1324 e6be
000000d0: 3f06 81be 7254 d4be f3e1 54be 4a6f 23bf
000000e0: 1b5a 69bd 43e0 313d e445 63be ad05 eebe
000000f0: 1a7d 80bd 4038 03bf 9c69 46be 2cad 0cbf
00000100: e317 9c3e d912 d53e 2ec7 8b3e 6ee2 8b3e
00000110: abb7 d23e a8aa 5abe 1e8d 64bc b4b7 e63d
00000120: 4b8c a33e afcb 0c3d b93f fc3d 68bb 913e
00000130: 53a8 a93e 7968 76be 9e5a ac3e 01b8 ca3e
00000140: 2b24 883e d19f b03e 7b03 04bd 0e33 823d
00000150: 8fa4 93bc bf4a 6d3e 6666 263e 5cf3 2b3e
00000160: a8bf f83d 63e6 5b3d c28a 343e 5020 8e3e
00000170: c98d ec3c 3ac3 8d3c 619c a43d 75c7 19be
00000180: 864f 8ebe dff3 78ba ad19 3f3e becd 043f
00000190: 28cb 8e3e 9424 afbc bbf6 cdbe 5e88 073f
000001a0: 3615 443e 28e6 c0be 4c99 533d a988 ccbc
000001b0: 07e7 b33d 81e8 523e 7b79 a43e 4da1 223e
000001c0: ddcb 1dbe 9714 863e 1f0f 0b3e 796a a6bd
000001d0: 9d3b 243e 9275 3b3e 0ae8 243e 37a3 aa3e
000001e0: ff3d 413d fa55 c33e 1470 183e 92cf b3bb
000001f0: 3d13 8b3e 0948 ae3e 63be 9a3e 120a 18bd
00000200: 11e3 4dbe 5a25 98be a633 b4ba d85b 11bd
00000210: ec2e 33be d59d 2f3e 7f84 143e c741 8abd
00000220: a173 84bd 8589 223d 19a0 c73d 973a 9a3e
00000230: 2634 e73c 39f1 8f3e ccf7 d1bd ad61 0b3e
00000240: 369e 58bd fb82 3cbd 3219 233d 5f8b 87be
00000250: ba3a 43be 0597 453d 6996 2bbc 3473 11be
00000260: b08e 3abe 8fff 8abe d956 38be 150e a4be
00000270: 841b 353d c4d5 0c3e ba7f 9a3b f2f8 453e
00000280: 0a51 bc3e 0e5a e2bc 5d42 98bd d35c 803d
00000290: 5ae2 123d f27a a53d 6ff5 da3e 8c52 cfbd
000002a0: 644d 543d 00d5 013d 43bf 723d 744a a23b
000002b0: 489a 37be 83b1 343d fb12 093e 52de 4d3c
000002c0: 3f6d fa3d 73ff 073c 446a 4f3e 601b 4d3b
000002d0: 270b 09bd 4276 7dbe 07f2 ec39 fb03 063d
000002e0: 0960 7e3d 6858 7f3e b5b7 253e 31b8 6fbd
000002f0: 6f83 3d3e a73e 373e c60c 88bd cdb7 083d
-0.25082403 -0.3550059 -0.5293582 -0.6646846 -0.02450923 0.02030563 -0.8388349 -0.13876551
-0.21136634 -0.5725054 -0.37279326 0.24195781 -0.23437087 0.004616395 -0.37890807 -0.01632921
-0.17687151 -0.54000694 -0.40170315 -0.24435692 -0.3932442 -0.18231612 -0.44396502 -0.440539
0.24753039 0.064533584 -0.23162009 -0.0850447 -0.37884444 -0.58395934 -0.6474619 -0.06585099
0.00037052686 0.111501925 -0.029669857 -0.09420877 0.04873969 -0.37608245 0.24650513 -0.21092175
-0.45127046 -0.24525876 -0.76397616 -0.42646942 -0.35042575 -0.27153724 -0.425419 -0.49864495
0.021482177 -0.08330619 -0.29605052 -0.44949397 -0.25200078 -0.41470677 -0.20789318 -0.6384169
-0.056970697 0.043426763 -0.2219463 -0.46488705 -0.06273861 -0.51257706 -0.19376224 -0.5495174
0.30486974 0.41615942 0.273004 0.2732119 0.41155753 -0.21354163 -0.013949661 0.11265507
0.31942973 0.034373935 0.12316842 0.28463292 0.33136234 -0.2406329 0.33662885 0.3959351
0.26590094 0.3449693 -0.03222988 0.06357394 -0.018022804 0.23173045 0.1625 0.16792053
0.121459305 0.05368651 0.17631057 0.27759027 0.028876202 0.017305005 0.080376394 -0.15017493
-0.27795047 -0.0009496789 0.18662138 0.5187644 0.2788937 -0.021379746 -0.40227303 0.52942455
0.19148716 -0.37675595 0.051659867 -0.024967508 0.08784299 0.20596506 0.32123932 0.15881844
-0.15409799 0.26187584 0.13579987 -0.08125777 0.16038366 0.18306568 0.16104141 0.33327648
0.047178265 0.38151532 0.14886504 -0.005487391 0.27163115 0.34039333 0.3022338 -0.03711898
-0.2010615 -0.29715997 -0.0013748303 -0.03548798 -0.17498368 0.17150052 0.14503668 -0.06750827
-0.06467367 0.03968193 0.09747333 0.30122826 0.028223109 0.28113726 -0.10252342 0.13611479
-0.052885257 -0.04602335 0.03981895 -0.2647352 -0.19065371 0.048239727 -0.010472872 -0.14204103
-0.18218493 -0.271481 -0.1800188 -0.32041994 0.044215694 0.1375342 0.004714933 0.19333246
0.36780578 -0.027630832 -0.07434533 0.06267705 0.035860397 0.080800906 0.42765376 -0.101231664
0.051831618 0.031697273 0.059264433 0.004952723 -0.17929947 0.0441146 0.13386147 0.012565212
0.12227868 0.00830065 0.20255381 0.0031296834 -0.0334579 -0.24752143 0.00045193752 0.03271864
0.062103305 0.24936068 0.1618336 -0.058525268 0.18507169 0.17894994 -0.06643061 0.03337841

gru.bias_hh_l0 f4 [192]
00000000: e9bf 75be 7f3f f1be 9bc0 14bf f5c9 17bf
00000010: fa55 79ba d415 253d bc8c 4abf c4df 88be
00000020: 0074 96be 87a9 04bf 8e9a 96be b9ac 893e
00000030: 78b7 a1be 1852 423d 38d5 cbbe 156c d2bc
00000040: f677 37be 1d28 fcbe d978 c0be bb9d 90be
00000050: 2377 abbe 9f82 c0be 28fd c5be 7050 debe
00000060: f56b 3d3e 5159 d53d 8f3e 7bbd 6e42 69bb
00000070: c54b 7bbe 8cb2 dcbe ac9b 42bf d770 1ebe
00000080: 5f7c 9bbc 958a e63d c356 08be b586 86be
00000090: cfff 103e 430d e2be 1d55 283d c9ae 4fbe
000000a0: ffa9 cdbe 5196 97be 24ed 1abf 860c f0be
000000b0: 6363 7fbe a7ba 6cbe 0779 d6be 3311 9abe
000000c0: 9194 22bc d760 60bd 2b54 e9be d1d7 ccbe
000000d0: bf44 82be 471f a7be be70 33be e34a 16bf
000000e0: 25f9 0abd 8ae5 a13c 9da1 64be a2b3 ecbe
000000f0: cd94 20be be84 a8be 3cfe 96be e1ab cebe
00000100: bcc8 403e 9fa5 e23e 6c9c ee3e 11d2 153e
00000110: 9256 693e fae9 a8be 8add 8dbd 2e59 713e
00000120: 6914 c43e d559 9a3d 23cc 8e3e e6ef 553e
00000130: 889b 7f3e 9d42 4abe 5715 463e 6009 d53e
00000140: dae2 b83e cfbf 5a3e 35dc 10bd c3fa 143e
00000150: a3bb 6abb 79d5 fc3d 02a7 933e 29da ee3d
00000160: 3431 683e fcfb b6ba 874e 8a3e 4f66 613d
00000170: 2dd9 71bd 56e4 8c3d aea3 993e 1ce2 23be
00000180: fbab 1bbe 8219 c03d c4ad 4b3e 0ddb cf3e
00000190: e6c4 fa3d c318 4f3e cc04 82be 6400 2d3f
000001a0: e073 543d 4f7a e2be a792 653e d4ce 373e
000001b0: 3b38 4d3e a3a5 a03e 7a86 a83e be78 3d3e
000001c0: 5bd3 6bbe a21c 963e 0c1f 3d3c 81da f23c
000001d0: 20d5 af3d 85e1 0c3e 2450 743e 4eb3 a03e
000001e0: d31f 863d 2219 e33e 3809 2d3e c3d0 a63d
000001f0: f39e d23e de87 983e e97b 913e 9fc3 db3d
00000200: d3b8 9d3c f4fa 14be acd0 52bc c7c8 17bc
00000210: c274 46be e86d e0bc 446d df3d aa49 823d
00000220: 639a 85bc 484e 17be a06f 35be 7fab 853e
00000230: 4bc3 203e 571b 9bbd 528d 33bd 7081 793d
00000240: 5ff0 2c3e 9fec 393e 804f ee3d caa0 193d
00000250: b3b7 d83d 6e49 833e 9cda 0b3e 3b3a 1b3d
00000260: 448d a8be f9bd 24be 52ed 68be fc0b d43c
00000270: f091 643e 0418 2f3e ef76 24bd b764 4d3d
00000280: 196c b03e f017 a13d 31f1 123c 5c10 393e
00000290: 8154 6d3e 74e0 97bd 78d5 91be 1a92 23be
000002a0: 6515 53be 474e cdbe 2ae4 c33d 16ef 003e
000002b0: 2bc7 d1bd 57e8 00be 53a7 e73d 85fd 84be
000002c0: 476f b13e 788a 43bb b3d2 813e e22b 4abe
000002d0: 32ae 0d3e 1f85 09be 0ceb 82bd effa b4bd
000002e0: 7ca1 b6bd 49fc 633e 86ea c73d d67f bebc
000002f0: 1147 063e 7f3d a83d c4ee 31be 9d24 52bd
-0.23998989 -0.47118756 -0.5810639 -0.59292537 -0.00095114077 0.04030402 -0.79120994 -0.2673322
-0.29385376 -0.5182118 -0.2941479 0.2688959 -0.31585288 0.047441572 -0.3981111 -0.025686303
-0.17916855 -0.49249354 -0.375922 -0.2824534 -0.33489332 -0.37599656 -0.38669705 -0.43420744
0.18498214 0.104174264 -0.061338957 -0.0035592574 -0.24540623 -0.4310497 -0.76018786 -0.15472732
-0.018980203 0.11256901 -0.13314347 -0.26274648 0.14160083 -0.44150743 0.041096795 -0.20281519
-0.4016876 -0.2960687 -0.605181 -0.46884555 -0.24940257 -0.23118077 -0.41889212 -0.30091247
-0.009923116 -0.054779854 -0.45572028 -0.40008405 -0.25443074 -0.3264105 -0.17523476 -0.5870802
-0.03392901 0.019762773 -0.22327276 -0.462308 -0.15681763 -0.32913774 -0.2949084 -0.40365508
0.18826574 0.44266984 0.46603715 0.14630915 0.2278693 -0.3299101 -0.06927021 0.23569176
0.38296822 0.07536665 0.2789012 0.20892295 0.24961674 -0.19751973 0.19344078 0.41608715
0.36110574 0.21362232 -0.035366256 0.14548783 -0.0035817407 0.12345404 0.28838354 0.116627045
0.2267502 -0.0013960595 0.27013037 0.05502921 -0.059045006 0.06879489 0.3000769 -0.16004223
-0.15202324 0.09379865 0.19890505 0.4059681 0.12244587 0.2022429 -0.25394285 0.6757872
0.05186832 -0.4423394 0.22419225 0.17949992 0.20040981 0.3137637 0.32915097 0.1850309
-0.23029844 0.2931872 0.011543047 0.029645206 0.08585572 0.13757904 0.23858696 0.313868
0.06549039 0.44355112 0.16898048 0.08145287 0.41136894 0.29791158 0.28414848 0.10730671
0.01925317 -0.14548856 -0.012867134 -0.009264178 -0.19380477 -0.027396157 0.10909513 0.063617066
-0.016308969 -0.14775956 -0.17718363 0.26107404 0.15699498 -0.07573574 -0.043835945 0.060914457
0.1688857 0.1815667 0.11636257 0.037506856 0.10581913 0.2564196 0.13657612 0.03789733
-0.32920277 -0.16088094 -0.2274678 0.02588462 0.22321296 0.17099005 -0.040152486 0.050144877
0.34457472 0.07865894 0.008968637 0.18072647 0.23176767 -0.07415858 -0.28483176 -0.15973702
-0.2061363 -0.40098783 0.09565003 0.12591204 -0.102430664 -0.1258863 0.113112114 -0.2597467
0.3465521 -0.0029837172 0.25356063 -0.19743302 0.13835981 -0.13429688 -0.06392488 -0.08836924
-0.089175195 0.22264208 0.09761529 -0.023254316 0.13113047 0.082148544 -0.17376238 -0.05130445

fc.weight f4 [3, 64]
00000000: e29e 8d3f a242 a53e e360 713f 868c 0cbf
00000010: e9bb d2bf 9db2 21bf 0af7 b03e 019e c53f
00000020: 214f 89bf 1cbf f43f 0450 0cbf 6635 68be
00000030: fc42 803f 554b 7abf 0573 213f e8f0 dbbe
00000040: 0cf6 2abf 35b5 ecbc dab5 40bf 7058 6dbf
00000050: 93f1 cabf db5f 753f f4e4 c73e 3657 803e
00000060: 14ac d6bd 2314 19be 172c 113f 7dd4 b13f
00000070: 9726 89be a0bc c0bf 98ac 123e 5241 75bf
00000080: fb24 31bf 6ccc 3f3f 7ebf 20bd 4ea2 a6be
00000090: 4c97 da3f 45dd 213f 0f60 3fc0 0dcb 393f
000000a0: d7bb c03e 30cb c4bf 8f79 ccbe 6c67 b63d
000000b0: 27a7 063f 92e1 163e 63d0 0f3e b414 d9be
000000c0: 4519 b73f af48 96bc 192a 89bf 4385 bdbf
000000d0: 4a33 fe3f 0345 5cbf 0685 b53d bf45 0abd
000000e0: 4d87 64bf f16f 543d a3e3 a63f c186 00bf
000000f0: fc66 69bf 40b3 a0be 8e84 ec3c caa7 6abf
00000100: 0fba 66bf 98e5 98be 9e66 8ebf de81 fa3e
00000110: ec27 c83f a966 ce3e f406 bfbe 0803 aabf
00000120: 9f04 903f 64f8 adbf db37 743f 0b15 173f
00000130: b07a 2bbf 1ab7 fe3e 4fc0 dabe 94c5 503f
00000140: 867b 823f e1bf 0dbd a641 7c3f 47e9 273f
00000150: 1122 ec3f aad3 22bf 8e00 a1be 9ad2 4b3d
00000160: d4c3 e83e 4694 373f f15e 3cbf 5b36 89bf
00000170: 4df6 0c3f 6d9f 953f 7240 813e a4bb 2c3f
00000180: 6ce3 2b3e 2250 03bf 2992 053f 9361 f43e
00000190: 2bd4 bdbf 4ffc 06bf 0540 2d40 f81e 75bf
000001a0: 3b19 46be fc4f aa3f 2693 c03e 8843 f2be
000001b0: c37b 38bf f251 c03e 640b a93e d5e1 7b3f
000001c0: 8561 8dbf 0995 d0be 6e5c 843f 1ee9 bf3f
000001d0: 02a8 cdbf a5b2 b73e c4bd a2be 4727 51be
000001e0: b8b4 ca3e 2739 893e 6229 7dbf f041 293e
000001f0: ae72 413f fb34 523f f79c 40be 5e01 9d3f
00000200: cd19 96be 2280 1d3f 7546 653f 6924 223f
00000210: 3a4f f53e 25d6 e13f 321d 1bbf cb92 1fbf
00000220: 9298 8b3d 5a78 3bbf 6831 4dc0 ec71 8dbf
00000230: eedb 21bf 16f5 9b3f dffb 15bf f526 e0bf
00000240: f430 83bf 606b 86bd c027 bbbf 6590 443f
00000250: c6d5 88bf 8503 58bf 563f 1ebf b4f2 5fbf
00000260: 9cf3 4fc0 9a61 a7c0 aaa9 a23f d271 27bf
00000270: 6439 0dbf 41e6 833f f02b 9dbf 4c4f 823f
00000280: f097 d13f bd99 85bf 26b1 c8bf 92a2 2ebf
00000290: e12c 4fbf 04a4 55bf b9b6 b73e a9e5 db3f
000002a0: 2cd9 a3bf cc4c 2d3f 4be9 8ebc 5160 b73f
000002b0: e24e ce3f 8b45 1bc0 7fc7 a2bf fe7f 9ebf
000002c0: 693e 3ebf 0d36 bf3f 6c88 b63e c16d 12be
000002d0: 95aa b7bf 1201 673f 2244 533f d319 2f3f
000002e0: efa4 0c40 5f31 a8bf 60b2 49bf 93a5 693f
000002f0: e510 1e3f 7c0d c4bf fa19 103f 5549 18be
1.1064112 0.322774 0.9428846 -0.5490192 -1.6463596 -0.6316317 0.34563476 1.5438844
-1.0727273 1.9120822 -0.54809594 -0.2267662 1.0020442 -0.977712 0.6306613 -0.42957234
-0.6678169 -0.028895 -0.75277483 -0.9271307 -1.5854973 0.9584939 0.39041865 0.25066537
-0.1048204 -0.14949088 0.567079 1.3892971 -0.26787254 -1.5057564 0.14323652 -0.95802796
-0.6919705 0.749213 -0.03924512 -0.32545704 1.7077422 0.63228256 -2.990238 0.72575456
0.3764331 -1.5374508 -0.39936492 0.08906445 0.52598804 0.14734486 0.14044337 -0.42398608
1.4304587 -0.018345205 -1.0715972 -1.4806293 1.9859402 -0.86042804 0.08863263 -0.03375792
-0.8926895 0.05186457 1.3038219 -0.5020562 -0.91172767 -0.31386757 0.0288718 -0.91662276
-0.9012765 -0.29862666 -1.1125066 0.48927206 1.5637183 0.40312698 -0.37309992 -1.3282175
1.125141 -1.3591428 0.9539773 0.59016484 -0.6698408 0.4974907 -0.42724845 0.8155148
1.0193946 -0.034606818 0.9853767 0.6559033 1.8447896 -0.63604224 -0.31445736 0.049761392
0.45461905 0.7171062 -0.7358237 -1.0719713 0.55063325 1.1689278 0.2524448 0.67473817
0.16785973 -0.5129415 0.5217615 0.47730693 -1.4830374 -0.5272874 2.7070324 -0.9575038
-0.19345562 1.3305659 0.37612265 -0.47317147 -0.72063845 0.3756252 0.33016503 0.9839147
-1.1045386 -0.40738705 1.0340707 1.4993017 -1.6066897 0.35878482 -0.31785405 -0.2042514
0.39591002 0.26801416 -0.9889127 0.1652906 0.7556561 0.8211209 -0.18809877 1.2266042
-0.2931656 0.6152364 0.89560634 0.6333681 0.47912008 1.7643477 -0.60591424 -0.62333363
0.0681621 -0.73230517 -3.2061405 -1.1050391 -0.6322621 1.2184169 -0.5858745 -1.7511889
-1.0249314 -0.06563449 -1.4621506 0.7678283 -1.0690238 -0.8438037 -0.6181539 -0.8747971
-3.2492437 -5.2306643 1.2708027 -0.6540805 -0.55165696 1.0304643 -1.2279034 1.018045
1.6374493 -1.0437542 -1.5679061 -0.6821681 -0.80927855 -0.83453393 0.35881594 1.7179462
-1.2800651 0.6769531 -0.017445227 1.4326268 1.6117823 -2.4261196 -1.2717131 -1.238281
-0.7431398 1.493837 0.35650957 -0.1429968 -1.4348933 0.9023601 0.8252584 0.6839878
2.1975667 -1.3140067 -0.78787804 0.9126827 0.6174453 -1.5316615 0.5628964 -0.14871724

fc.bias f4 [3]
00000000: 6b03 74be 75ea c63e 39e5 d4be
-0.23829429 0.38850752 -0.41581133
