gru_model.pth (torch, 63260 bytes, 6 tensors)

gru.weight_ih_l0 f4 [192, 12]
0	0xbd225273	-0.03962941
1	0xbdc83cba	-0.09777208
2	0xbe61872e	-0.22024223
3	0xbec46200	-0.38356018
4	0xbd543cb2	-0.051815696
5	0x3e951091	0.29114202
6	0xbd58f2bf	-0.052965876
7	0x3d8d651d	0.069040515
8	0xbdc7a323	-0.09747913
9	0xbd22f166	-0.039780997
10	0x3d91c67a	0.071179345
11	0x3eedca92	0.4644361
12	0x3d83c7ff	0.064346306
13	0xbd77dd44	-0.06051375
14	0x3f01d423	0.5071432
15	0x3f0b8527	0.5450005
16	0xbdd302d9	-0.103032775
17	0xbe8ce8f9	-0.27521494
18	0x3db02c0f	0.086021535
19	0xbdbd7e71	-0.092526324
20	0x3ec05d80	0.37571335
21	0xbd4d067c	-0.050055012
22	0x3e408aec	0.18802994
23	0xbe74feae	-0.23925278
24	0x3e408533	0.18800811
25	0x3e18e83a	0.14932337
26	0xbd8e698f	-0.069537275
27	0x3c9d96a0	0.019236863
28	0x3e03e4d7	0.12880264
29	0x3da7e484	0.08197883
30	0x3ec75404	0.38931286
31	0xbe670a70	-0.22562575
32	0x3ebab2c6	0.36464518
33	0xbdb098e3	-0.08622911
34	0xbe0ae9c3	-0.13565736
35	0x3e273db6	0.16332135
36	0x3d6ad54a	0.057332315
37	0xbe0aa493	-0.13539343
38	0x3f1f34a2	0.62189686
39	0x3ed27102	0.41101843
40	0xbe1290c0	-0.1431303
41	0xbdb2d632	-0.08732261
42	0xbebef8ae	-0.37299103
43	0xbe386633	-0.18007736
44	0x3e2d8211	0.16944148
45	0x3e65b814	0.22433501
46	0xbecd8b65	-0.40145412
47	0x3d8e78a8	0.06956607
48	0xbda2efdd	-0.079559065
49	0xbe028ada	-0.1274828
50	0xbe8fca97	-0.2808425
51	0xbf295e15	-0.6615918
52	0xbebc3ca3	-0.36765012
53	0x3dfd9487	0.12381845
54	0xbee27851	-0.4423242
55	0x3ecea0b2	0.40356976
56	0x3e6a40b5	0.22876246
57	0x3ebdcca3	0.37070188
58	0x3f00770d	0.5018166
59	0x3d8b4040	0.06799364
60	0x3f2388f2	0.63880837
61	0xbe144254	-0.14478427
62	0x3f266d6f	0.6501073
63	0x3e1c53cb	0.1526634
64	0xbeeeffe6	-0.4667961
65	0xbcc637ff	-0.024196623
66	0xbf172fed	-0.59057504
67	0x3e52acb4	0.20573694
68	0x3df1f4e4	0.11814287
69	0x3dfc8a5c	0.123310775
70	0xbe3f249a	-0.18666306
71	0xbc440ec3	-0.01196641
72	0xbe758c8e	-0.23979399
73	0xbec04ecd	-0.3756012
74	0x3ee9519b	0.45570073
75	0xbe5213b4	-0.20515329
76	0x3dd3d9ee	0.10344301
77	0x3e6c4504	0.23073202
78	0xbe9c19ea	-0.3048852
79	0xbe78a840	-0.24282932
80	0x3c163c2f	0.009169622
81	0x3e2d0bee	0.16899082
82	0x3e43fb36	0.19138798
83	0x3ed45314	0.41469634
84	0x3e7378ec	0.23776597
85	0x3e9aa101	0.3020096
86	0x3e434c2a	0.19072023
87	0x3ea69630	0.3253646
88	0x3e4733f5	0.19453414
89	0xbdff05a4	-0.12452248
90	0x3e1befbe	0.15228173
91	0xbf1181e1	-0.56838804
92	0x3d972f7e	0.07382105
93	0x3f3f210f	0.7465982
94	0xbe7f000d	-0.24902363
95	0x3f24c277	0.6435923
96	0x3ee63094	0.44958937
97	0x3dfcece8	0.12349874
98	0x3f6443c1	0.89165884
99	0x3edb7ad4	0.42867148
100	0xbe27f2ac	-0.16401166
101	0x3e59bf6f	0.21264432
102	0xbe506851	-0.20352294
103	0x3ef823d3	0.48464832
104	0xbec88cf4	-0.3917004
105	0xbe42a985	-0.19009979
106	0xbf3ff632	-0.7498504
107	0xbf11c2a5	-0.5693763
108	0xbe931be1	-0.28732207
109	0xbebd9573	-0.37028083
110	0xbef545ab	-0.47904715
111	0x3e76a272	0.24085405
112	0x3e975eed	0.2956461
113	0x3e911d64	0.28342736
114	0x3e797eaf	0.24364732
115	0x3f1aa7e0	0.60412407
116	0x3e8f7bbb	0.28024086
117	0xbf075f42	-0.52879727
118	0x3e822615	0.2541968
119	0xbf114b85	-0.5675586
120	0x3d0fadaf	0.035077747
121	0xbc1e6824	-0.009668384
122	0xbee3279b	-0.44366154
123	0xbec4b818	-0.38421702
124	0xbe2bd903	-0.16782002
125	0xbd859da1	-0.06524206
126	0x3e2accd4	0.16679698
127	0x3f12e5bd	0.573818
128	0xbece9251	-0.40346006
129	0x3e2430b7	0.16034208
130	0x3e5b346a	0.21406713
131	0x3ecdb4e5	0.40177074
132	0x3da83cd2	0.082147256
133	0x3cbf31fb	0.023339262
134	0x3e970727	0.29497644
135	0x3f470c91	0.7775355
136	0x3eb28af1	0.3487163
137	0x3d11597b	0.035485726
138	0x3d454880	0.048164845
139	0x3dc13830	0.09434545
140	0x3d89e001	0.067321785
141	0xbe406953	-0.18790178
142	0xbf04a7a5	-0.51818305
143	0xbeb7479f	-0.3579683
144	0x3eb604e5	0.3555061
145	0xbc94c977	-0.018162472
146	0x3e817649	0.25285557
147	0x3e50b9e6	0.20383415
148	0xbf27643a	-0.6538731
149	0xbd91abf1	-0.07112873
150	0xbedb54df	-0.4283819
151	0xbdd723ff	-0.105049126
152	0x3ed410c7	0.4141905
153	0xbea03972	-0.31293827
154	0x3ea34a2c	0.31892526
155	0xbd8b9406	-0.068153426
156	0xbde0cd79	-0.10976691
157	0xbdc7d161	-0.09756733
158	0xbe930715	-0.2871634
159	0x3e969328	0.29409146
160	0x3ec44131	0.38330987
161	0xbea867af	-0.32891604
162	0x3f310cc8	0.6916013
163	0xbf267dbd	-0.6503561
164	0xbcebdb30	-0.02879104
165	0x3d2323b4	0.03982897
166	0xbdfc9019	-0.12332172
167	0x3e0ec0d5	0.13940747
168	0xbe102f0c	-0.14080447
169	0xbeca7159	-0.39539602
170	0x3efbf27d	0.4920844
171	0xbf3d1e5d	-0.73874456
172	0xbe4711e0	-0.19440413
173	0x3e2b4d81	0.16728784
174	0xbf4d77d7	-0.80260986
175	0xbe60cb4b	-0.2195255
176	0xbe9c456e	-0.3052172
177	0x3f1e5469	0.6184755
178	0x3ed78946	0.4209692
179	0x3f5eb175	0.8698953
180	0xbd0beb15	-0.03415974
181	0x3f1912af	0.59794134
182	0xbe309b47	-0.17246734
183	0x3ef109f0	0.47077894
184	0x3e19eb00	0.15031052
185	0xbef5e6c4	-0.48027623
186	0xba888b48	-0.0010417486
187	0xbf32637f	-0.6968307
188	0x3c029d17	0.007972023
189	0x3eb10b06	0.34578723
190	0xbdc49858	-0.0959937
191	0x3e27af94	0.16375571
192	0x3d3c6d93	0.046002936
193	0x3d824316	0.06360452
194	0xbe424e44	-0.18975168
195	0xbed38e63	-0.4131957
196	0x3dd2388d	0.102646925
197	0x3f3b9cd7	0.73286194
198	0x3ece3a71	0.40278962
199	0x3f0cf5f4	0.55062795
200	0x3d27c4c0	0.04095912
201	0x3e7faa67	0.24967347
202	0xbe863e09	-0.26219204
203	0xbe557663	-0.20845942
204	0x3c66537f	0.014057993
205	0xbe5f27ac	-0.21792477
206	0x3cb11f1c	0.02162128
207	0xbe7c40d2	-0.24634102
208	0xbe8e66c3	-0.27812776
209	0xbe124e30	-0.14287639
210	0x3ec2db99	0.38058165
211	0x3eb183b0	0.34670782
212	0xbdfa56c4	-0.122235805
213	0xbe80896a	-0.2510484
214	0xbda779d7	-0.08177536
215	0xbe9f1eba	-0.3107813
216	0xbeb89fea	-0.36059505
217	0x3eb1e34d	0.3474373
218	0xbf3c3d18	-0.7353072
219	0x3e4fe15c	0.20300812
220	0x3ed25fde	0.41088766
221	0x3d05790c	0.032586142
222	0x3f5cb6ce	0.8621644
223	0xbed231d8	-0.41053653
224	0x3c52f9fe	0.012876986
225	0xbea19646	-0.31559962
226	0xbf3cd20d	-0.7375801
227	0xbe23a426	-0.15980586
228	0x3e24eca3	0.16105895
229	0x3ea03405	0.31289688
230	0xbf34b610	-0.70590305
231	0xbf32506f	-0.6965398
232	0x3e8d7658	0.27629352
233	0x3efb0377	0.4902608
234	0x3f45daa8	0.7728677
235	0xbe80dae1	-0.2516699
236	0x3e3d22c1	0.18470289
237	0x3df59ed2	0.11993183
238	0x3e68c2d5	0.22730573
239	0x3f7bf7d8	0.98425055
240	0x3e80cd01	0.25156406
241	0xbe8d0a50	-0.2754693
242	0x3f9b7fdc	1.2148395
243	0x3da980e3	0.08276536
244	0xbe69d46e	-0.22834942
245	0xbde58cb7	-0.1120848
246	0xbdb2891f	-0.0871756
247	0x3f5e59d0	0.86855793
248	0x3d83bf53	0.064329766
249	0xbee7e37d	-0.45290747
250	0xbe666f6c	-0.22503442
251	0xbeeff2f3	-0.46865043
252	0x3e903502	0.28165442
253	0x3e16b3c1	0.14717008
254	0x3f170999	0.5899902
255	0x3e780739	0.24221505

gru.weight_hh_l0 f4 [192, 64]
0	0x3db0674f	0.086134546
1	0xbe32497b	-0.17410843
2	0xbe554e4b	-0.20830648
3	0x3e143292	0.14472416
4	0x3da206a7	0.07911425
5	0xbde978ad	-0.1139997
6	0xbd42f414	-0.047596052
7	0xbe3c60c1	-0.18396284
8	0xbe6ac982	-0.22928432
9	0xbe024253	-0.12720613
10	0x3d31b0db	0.043381553
11	0x3e6bd871	0.23031785
12	0xbe505438	-0.20344627
13	0xbdc2200a	-0.09478767
14	0xbdfd9832	-0.123825446
15	0xbe16677f	-0.14687918
16	0x3e1a3cc6	0.15062246
17	0x3d2937e8	0.041313082
18	0x3eb2e8a0	0.34943104
19	0xbc25df3d	-0.010124025
20	0xbe1138d4	-0.14181834
21	0x3ea447da	0.32086068
22	0xbe9e0baf	-0.3086829
23	0x3d91949e	0.071084246
24	0x3dbff72d	0.09373317
25	0xbdeb6196	-0.114932224
26	0xbe111fdc	-0.1417231
27	0x3e459b4f	0.19297527
28	0xbdcf76a8	-0.10130054
29	0xbe674abe	-0.22587106
30	0xbe2b2d16	-0.16716418
31	0xbdb979a0	-0.09056401
32	0xbd2d0f7d	-0.0422511
33	0xbe4288b2	-0.18997458
34	0x3de8df3e	0.11370705
35	0x3d14e003	0.036346447
36	0x3e63a213	0.22229795
37	0x3e1a09e6	0.15042838
38	0xbe1842e4	-0.14869267
39	0x3c4b7780	0.012418628
40	0xbe25066c	-0.16115731
41	0xbdbb86fa	-0.09156604
42	0x3dca56d8	0.098798454
43	0x3d6bac3e	0.05753731
44	0x3e0f9e16	0.14025149
45	0x3d2cb716	0.04216679
46	0xbe34d0e0	-0.17657804
47	0x3e2c994c	0.16855353
48	0xbed4958a	-0.4152034
49	0x3cfad41d	0.030618722
50	0x3c99691e	0.018726882
51	0x3d895072	0.06704797
52	0x3ce51e58	0.02796857
53	0x3e2f04ec	0.17091721
54	0x3d32afe0	0.04362476
55	0x3c3e40c7	0.011612124
56	0xbe8c51a6	-0.27406043
57	0x3d8e1fee	0.06939684
58	0x3eac3dc7	0.33640882
59	0x3d64ff5a	0.055907585
60	0x3e50ddee	0.2039716
61	0x3cbd5b5f	0.023114858
62	0xbd4710be	-0.04859995
63	0x3e08194e	0.13290903
64	0x3db1bec1	0.086789615
65	0x3d618ea8	0.05506769
66	0xbcfea0b2	-0.031082485
67	0x3ca4b36b	0.020105084
68	0x3d80d349	0.062902994
69	0x3c3d1430	0.011540458
70	0xbc959bca	-0.018262763
71	0xbd8bc416	-0.0682451
72	0x3dd82fa3	0.10555961
73	0xbe35038e	-0.17677137
74	0xbe67242a	-0.22572389
75	0xbd924dca	-0.07143743
76	0x3dca2290	0.098698735
77	0x3e243d9d	0.16039129
78	0xbd996c9b	-0.07491418
79	0x3e78c711	0.24294688
80	0x3d4d833d	0.050173987
81	0xbd88a05e	-0.066712126
82	0x3dfab2ec	0.12241158
83	0xbe66bd88	-0.22533238
84	0x3e73353a	0.23750773
85	0x3de5c12c	0.11218485
86	0x3df5a66d	0.11994634
87	0xbd4ba48f	-0.049717482
88	0xbe92ae62	-0.2864867
89	0x3dae719c	0.08517763
90	0x3ca3f219	0.020012902
91	0xbcea0044	-0.02856458
92	0xbe0300a9	-0.1279322
93	0x3d073b4e	0.03301554
94	0x3e2b5d9f	0.16734932
95	0x3e471865	0.194429
96	0xbcb5624c	-0.022141598
97	0x3e2f9347	0.17146026
98	0xbe9265d4	-0.28593314
99	0x3e261baf	0.16221498
100	0xbe9362a4	-0.28786194
101	0x3dc2f79a	0.095198825
102	0x3d9e4c98	0.07729453
103	0xbd8145b8	-0.06312126
104	0xbd231cec	-0.039822504
105	0x3db8eaf2	0.09029187
106	0xbcbd32cd	-0.023095513
107	0xbc975a7f	-0.01847577
108	0x3cce479e	0.025180634
109	0x3e34d5e1	0.17659713
110	0x3e9093d1	0.28237775
111	0x3e241807	0.1602479
112	0x3b848457	0.0040440965
113	0x3b5039a9	0.003177265
114	0xbe1ee2c0	-0.15516186
115	0x3dae858d	0.085215665
116	0x3d9db422	0.07700373
117	0xbc6a0529	-0.014283457
118	0xbc054468	-0.008133985
119	0x3e14e585	0.1454068
120	0xbb666598	-0.003515577
121	0xbd57f25b	-0.052721363
122	0xbe358132	-0.17725065
123	0xbe61a6f2	-0.22036341
124	0x3e015a57	0.12632118
125	0x3d5a9f5d	0.053374637
126	0x3e0371d0	0.12836385
127	0xbe23ffc0	-0.1601553
128	0xbd718962	-0.05896891
129	0x3d0f67f9	0.035011265
130	0x3b224288	0.0024758894
131	0x3d848889	0.064713545
132	0x3cf86fc8	0.030326739
133	0xbcd88415	-0.02643017
134	0x3d750e4d	0.05982809
135	0xbd49f05b	-0.049301486
136	0x3d7a5769	0.061118517
137	0xbe468a3e	-0.19388673
138	0xbe2e177d	-0.17001148
139	0x3c75369b	0.014966632
140	0xbe58faec	-0.21189469
141	0x3e8017c7	0.2501814
142	0x3d505213	0.050859522
143	0xbc59bff4	-0.013290394
144	0x3e3eb328	0.1862303
145	0xbda6eee9	-0.08151037
146	0xbda5e2dc	-0.080999106
147	0xbe7693e9	-0.24079861
148	0x3dad1988	0.08452135
149	0x3dfc3212	0.12314238
150	0xbcd495cc	-0.025950335
151	0x3bf454ef	0.007456414
152	0xbe779d48	-0.24181092
153	0xbcc2e95e	-0.023792919
154	0x3d5e3f43	0.05425955
155	0x3e256756	0.16152701
156	0xbd9f7249	-0.0778547
157	0xbd0f0a73	-0.034922075
158	0xbd2b7e92	-0.041868754
159	0x3e149892	0.14511326
160	0x3ca81507	0.02051784
161	0xbd9c1161	-0.07620502
162	0x3d9d4fac	0.07681212
163	0x3e7058b6	0.2347134
164	0xbe14a758	-0.14516962
165	0x3dbc30b9	0.091889806
166	0x3d94a28a	0.07257564
167	0xbc6973b2	-0.014248775
168	0xbdd8559a	-0.10563202
169	0xbd542512	-0.051793166
170	0x3deecc6e	0.116600856
171	0xbd1e429e	-0.03863775
172	0x3e0ae5fd	0.13564296
173	0x3e6b57f7	0.22982775
174	0x3cbc2c6e	0.022970404
175	0x3df36a96	0.11885564
176	0xbe087b4f	-0.13328288
177	0x3e8f4ef3	0.2798992
178	0x3d8b6d44	0.0680795
179	0x3dd5ca46	0.10438971
180	0xbdddb004	-0.10824588
181	0x3dfd7968	0.12376672
182	0x3db9b055	0.09066836
183	0x3e0f05b0	0.13967013
184	0xbd260477	-0.0405316
185	0x3dddd696	0.10831945
186	0x3d737e92	0.05944688
187	0xbd2065b2	-0.039159484
188	0x3e2dcdd8	0.16973054
189	0x3da4f96f	0.08055388
190	0x3b8078dd	0.003920658
191	0xbdc845fc	-0.097789735
192	0xbc0338f5	-0.008009185
193	0x3edb3cf1	0.42819932
194	0xbd1393ee	-0.03602975
195	0x3e95868c	0.29204214
196	0xbe2252a5	-0.15851839
197	0xbca9f2be	-0.020745631
198	0xbd3d9fbe	-0.04629492
199	0x3e182a45	0.14859875
200	0xbda2ee3e	-0.07955597
201	0x3e9cd288	0.30629373
202	0x3de82963	0.11336019
203	0x3d9af7b3	0.07566776
204	0x3da10069	0.07861406
205	0xbcd22115	-0.02565054
206	0x3bfe209c	0.007755352
207	0xbe100e76	-0.14068016
208	0x3de776b2	0.11301936
209	0x3e265ac3	0.1624556
210	0x3df8df76	0.12151997
211	0xbe56d283	-0.20978741
212	0xbe491255	-0.196359
213	0xbe3cb3e0	-0.18427992
214	0xbdaee4e8	-0.08539754
215	0x3df80d4c	0.12111911
216	0x3d646ad2	0.055765934
217	0xbd2b1de9	-0.04177657
218	0xbe59b368	-0.21259844
219	0xbd8792ed	-0.06619821
220	0x3d9b9bec	0.07598099
221	0xbd379be2	-0.044826396
222	0xbe1cf8af	-0.1532924
223	0x3e7e7c6f	0.24852155
224	0x3c2053b5	0.009785582
225	0xbed882b7	-0.42287228
226	0x3ca070ae	0.01958498
227	0xbc5c86c8	-0.013459869
228	0x3d99da15	0.07512299
229	0xbd1d8332	-0.038455196
230	0xbcd47ddf	-0.025938926
231	0xbd3ecf1f	-0.046584245
232	0x3dcc27d7	0.09968536
233	0x3d4e115e	0.05030953
234	0x3d2f37b2	0.042777725
235	0x3e10bae0	0.14133787
236	0xbcb15089	-0.021644847
237	0xbe06f63b	-0.13179867
238	0x3dcf102d	0.10110507
239	0x3d399c5d	0.045315135
240	0x3db41b03	0.087942146
241	0x3d804e9b	0.06264993
242	0x3e51f0dc	0.20502037
243	0xbdf1e081	-0.11810399
244	0xbd96d28b	-0.07364377
245	0x3df972e3	0.12180116
246	0x3e02f85e	0.12790057
247	0xbda89baf	-0.08232819
248	0xbe6cb206	-0.23114786
249	0x3e419e17	0.18907963
250	0xbd2287c7	-0.03968027
251	0x3dbea214	0.09308258
252	0xbe72582b	-0.23666446
253	0xbe7a3c9c	-0.24437183
254	0xbd5dba4d	-0.05413275
255	0xbdd4197b	-0.103564225

gru.bias_ih_l0 f4 [192]
0	0xbe337a87	-0.17527209
1	0x3d0a3d7c	0.033750042
2	0xbdc55f93	-0.0963737
3	0xbe1010ba	-0.1406888
4	0xbe029d38	-0.12755287
5	0x3d27a758	0.040931076
6	0xbd9ac958	-0.075579345
7	0xbbeacf89	-0.0071658534
8	0x3d10e2c9	0.03537253
9	0xbdaf0dd8	-0.08547562
10	0xbbca2fb1	-0.006170236
11	0xbde75db9	-0.11297173
12	0xbd97c949	-0.07411439
13	0xbe487c51	-0.19578673
14	0xbdbf60c4	-0.093446285
15	0x3e078a14	0.13236266
16	0xbe27a3c3	-0.16371064
17	0xbe10878a	-0.14114204
18	0x3de36d09	0.11104781
19	0xbdb2115d	-0.08694718
20	0x3d26ba1d	0.040704835
21	0xbdb433b1	-0.08798922
22	0x3deb964a	0.11503275
23	0xbe62e821	-0.22158863
24	0xbe16aa0e	-0.14713308
25	0xbdd745f1	-0.10511387
26	0x3dd80fc2	0.105498806
27	0xbe18cae1	-0.14921142
28	0xbd6601bd	-0.056154
29	0xbb80d96a	-0.003932168
30	0xbdc139c9	-0.0943485
31	0x3d0dd710	0.034628928
32	0x3d180f2f	0.037123855
33	0x3e8809fc	0.26570117
34	0xbe172832	-0.14761427
35	0xbe068a7e	-0.13138768
36	0xbe152c38	-0.1456765
37	0x3d9825b5	0.07429067
38	0x3e0f30dc	0.13983482
39	0xbe80a529	-0.25126007
40	0x3e0b9f06	0.13634881
41	0x3d5debc2	0.054179914
42	0xbe03e110	-0.12878823
43	0xbd5af787	-0.053458717
44	0xbd8ff5b5	-0.07029287
45	0xbd1fb24b	-0.038988393
46	0xbe75d267	-0.24006043
47	0x3d806cab	0.06270727
48	0x3e32bc4d	0.17454644
49	0xbe053764	-0.13009411
50	0x3db19adb	0.086721145
51	0xbcd9711e	-0.026543196
52	0x3c124de9	0.008929708
53	0xbe1afd1a	-0.15135613
54	0xbe19e257	-0.15027748
55	0xbe366e87	-0.178156
56	0x3d91ceeb	0.071195446
57	0x3d059774	0.03261514
58	0xbb2872e9	-0.0025703257
59	0xbd928c72	-0.07155694
60	0xbdeb7465	-0.1149681
61	0xbc02de41	-0.00798756
62	0xbd56429a	-0.05230961
63	0x3d6826a4	0.056677476
64	0xb9b4cfb7	-0.00034487035
65	0xbd60ee0b	-0.054914515
66	0xbea368f8	-0.31916022
67	0xbe6ce004	-0.2313233
68	0x3e476edb	0.19475882
69	0xbe0afc70	-0.1357286
70	0xbf1312ca	-0.57450545
71	0x3e252aa9	0.16129555
72	0xbdb74574	-0.08948794
73	0x3dca2222	0.098697916
74	0x3e438e08	0.1909715
75	0x3aa7d36b	0.0012804096
76	0x3e9fa746	0.31182307
77	0xbeec1aa8	-0.46114087
78	0xbf1758e7	-0.5912003
79	0x3d3d3da8	0.046201378
80	0xbc2eae1b	-0.010661627
81	0xbec56070	-0.38550138
82	0xbcbc088d	-0.022953296
83	0x3c517b94	0.012785811
84	0x3dc6942c	0.0969623
85	0xbe706b06	-0.23478326
86	0x3d4810cc	0.048844144
87	0x3e98e667	0.29863283
88	0x3d633c5d	0.05547749
89	0x3ea76645	0.32695213
90	0xbd894aea	-0.06703742
91	0xbe916bfc	-0.28402698
92	0x3e9979a6	0.29975623
93	0xbe0392ed	-0.12849016
94	0x3eb3c5eb	0.35111937
95	0xbf088773	-0.5333168
96	0xbe3e88a6	-0.18606815
97	0x3ea7eebb	0.32799324
98	0xbd80c49f	-0.062875025
99	0x3c1a080a	0.009401331
100	0x3c4f7b9d	0.012663749
101	0xbf222242	-0.63333523
102	0x3dc020ee	0.09381281
103	0xbe39d4c3	-0.18147568
104	0xbe2b6fd8	-0.16741884
105	0x3d500623	0.050787102
106	0x3ebfde5b	0.3747433
107	0xbd2aa86b	-0.041664522
108	0xbf08264e	-0.5318345
109	0xbedf6f22	-0.43639475
110	0x3e4abe5e	0.19799182
111	0xbe0221b5	-0.1270817
112	0xbf0cf5cb	-0.5506255
113	0xbe31c354	-0.17359668
114	0xbdc92bdb	-0.09822818
115	0xbe3a7c72	-0.18211535
116	0x3b74bfb6	0.0037345714
117	0x3d40266c	0.046911642
118	0xbd8afe4e	-0.06786786
119	0xbe29ee3b	-0.16594784
120	0x3e92cf46	0.28673762
121	0xbdf9c487	-0.12195688
122	0x3dc1d0b3	0.09463634
123	0xbec38832	-0.38189846
124	0xbf00c971	-0.50307375
125	0x3e3df355	0.18549855
126	0x3dce189a	0.10063286
127	0x3d0072aa	0.031359352
128	0x3dcb1041	0.099152096
129	0xbde5dbf9	-0.11223597
130	0xbe3a2f20	-0.1818204
131	0x3da242c9	0.079228945
132	0x3cebba5f	0.028775392
133	0x3d2ccf89	0.04219011
134	0x3e1942b5	0.14966853
135	0xbda0524c	-0.07828197
136	0x3c8f4cb5	0.017492631
137	0xbda9f0c8	-0.082978785
138	0x3dae330c	0.0850583
139	0xbd19afb6	-0.037521087
140	0xbdbfbd7a	-0.09362312
141	0xbc686ea3	-0.014186534
142	0xbe1652c5	-0.14680012
143	0x3d3a6ff2	0.045516916
144	0x3dbb446d	0.091439106
145	0xbe145848	-0.14486802
146	0xbd9a423e	-0.07532166
147	0xbd9b2dc5	-0.07577089
148	0x3aafd50e	0.0013414936
149	0xbc6a8817	-0.014314673
150	0xbe0e57f4	-0.13900739
151	0xbd1fddfa	-0.039030053
152	0xbd693907	-0.05693915
153	0xbc13d2fe	-0.009022472
154	0x3b71280b	0.003679755
155	0x3da06f5a	0.078337386
156	0x3b25e70d	0.002531472
157	0xbe414902	-0.18875507
158	0x3b384c3b	0.0028121609
159	0x3e3433ec	0.17597932
160	0xbe242e59	-0.16033305
161	0x3daec2cb	0.085332476
162	0x3e05925d	0.13044114
163	0x3e0367aa	0.12832513
164	0xbd8e8145	-0.0695825
165	0xbe42afe9	-0.19012417
166	0x3d0658b0	0.032799423
167	0xbc0d2fd4	-0.00861736
168	0xbe6374ed	-0.22212572
169	0xbbb450b5	-0.005502785
170	0x3e05dd71	0.13072754
171	0x3e13ee8b	0.14446466
172	0x3cc14c19	0.023595857
173	0x3e0ab973	0.13547306
174	0x3e01a8d8	0.12662065
175	0x3dbfc630	0.09363973
176	0xbe2d6f8d	-0.16937084
177	0x3e22808a	0.15869346
178	0xbd913a49	-0.07091195
179	0x3dd18742	0.102308765
180	0xbd95a5d4	-0.0730702
181	0x3e3226de	0.17397639
182	0xbe0a171a	-0.13485375
183	0x3cbf06eb	0.023318728
184	0x3d868f30	0.065702796
185	0xbe13888d	-0.14407559
186	0x3e3b3257	0.18280922
187	0xbd730b5c	-0.059337005
188	0x3db3a84e	0.08772336
189	0x3e4ba0f0	0.19885612
190	0xbd9b05cf	-0.07569467
191	0xbd1126df	-0.03543746

gru.bias_hh_l0 f4 [192]
0	0xbd75a9d2	-0.059976406
1	0xbdfded28	-0.123987496
2	0xbdddacf7	-0.10824006
3	0xbdc0a0b6	-0.09405653
4	0xbab5b678	-0.0013863584
5	0x3cf87cca	0.030332942
6	0xbdad12c9	-0.084508486
7	0xbd75e647	-0.060034063
8	0x3d4578d1	0.048210923
9	0xbdc9514f	-0.098299615
10	0xbe3b365c	-0.18282455
11	0xbdc98672	-0.098400965
12	0xbe12121f	-0.14264725
13	0xbe4a9c6e	-0.19786236
14	0xbd691c13	-0.05691154
15	0x3c5d6288	0.013512261
16	0xbe549642	-0.20760444
17	0xbd3f7fe8	-0.04675284
18	0x3e230a81	0.15921976
19	0x3cffbe36	0.03121863
20	0xbd9df7b3	-0.077132605
21	0xbdc0b1e4	-0.0940893
22	0x3d8a69d0	0.067584634
23	0xbe52426b	-0.20533149
24	0xbe93e548	-0.28885865
25	0xbe49040a	-0.19630447
26	0xbdbfa7c8	-0.093581736
27	0xbd61f5dc	-0.05516611
28	0xbd66560e	-0.056234412
29	0xbd93abcb	-0.07210501
30	0x3dedf861	0.1161964
31	0xbd8490eb	-0.064729534
32	0xbbe86f39	-0.007093337
33	0x3e8a2f02	0.2698899
34	0xbe217413	-0.15766935
35	0xbe0733da	-0.13203374
36	0xbe2f6c05	-0.1713105
37	0x3b8c9b78	0.0042909943
38	0x3e0978fb	0.13425057
39	0xbe52b58d	-0.20577069
40	0x3daa5cec	0.08318505
41	0xbdea09e1	-0.114276655
42	0xbe4c59e3	-0.19956164
43	0xbd9ec512	-0.07752432
44	0xbdd75361	-0.1051395
45	0xbd252a53	-0.040323567
46	0xbe54b458	-0.2077192
47	0xbe14f8ba	-0.14548007
48	0xbce43b84	-0.02786041
49	0xbdb42473	-0.08796015
50	0x3e17c930	0.1482284
51	0xbbc30620	-0.005951658
52	0xbdf7faf2	-0.12108411
53	0xbcf448fd	-0.02981996
54	0xbdbc59af	-0.09196793
55	0x3d5e3bed	0.05425637
56	0xbd647f12	-0.055785246
57	0x3d9275ba	0.07151361
58	0xbe358f14	-0.17730361
59	0xbdd6c6c1	-0.10487128
60	0xbe705e70	-0.23473525
61	0x3db6705e	0.08908151
62	0xbe6a447a	-0.22877684
63	0xbdb4bc48	-0.08824974
64	0x3d382cef	0.044964727
65	0xbdb75a2c	-0.08952746
66	0xbe3de02f	-0.1854255
67	0xbdb7b0e9	-0.0896929
68	0x3e8d521e	0.27601713
69	0xbd60c4be	-0.054875128
70	0xbf2d9276	-0.67801607
71	0xbcdc737c	-0.026910536
72	0xbe5e38f2	-0.2170141
73	0x3e3e7dca	0.18602672
74	0x3df23155	0.118258156
75	0x3e476281	0.1947117
76	0x3e6f6446	0.23378095
77	0xbef52eb0	-0.47887182
78	0xbed6c8d9	-0.4195011
79	0x3d0ded6f	0.034650262
80	0xbddfa482	-0.10920049
81	0xbeab2433	-0.33426055
82	0xbddc9d73	-0.107722186
83	0x3df46886	0.11933999
84	0x3e92333c	0.28554714
85	0xbe72cbac	-0.23710507
86	0x3daa75f5	0.0832328
87	0x3e966b17	0.29378578
88	0x3de7bfd7	0.113158874
89	0x3e4fff16	0.20312151
90	0xbe4b3f0a	-0.19848266
91	0xbef723c8	-0.48269486
92	0x3e738fda	0.23785344
93	0x3d94da21	0.07268167
94	0x3e6379ac	0.22214383
95	0xbf12f37f	-0.57402796
96	0xbd7bf5f3	-0.061513852
97	0x3e0ea184	0.13928801
98	0x3d63afba	0.055587508
99	0xbdba93a4	-0.091101915
100	0x3c864685	0.016391048
101	0xbf193e4f	-0.598607
102	0x3d4092a5	0.04701485
103	0xbdb9f84b	-0.09080561
104	0xbe4a8e31	-0.19780804
105	0x3dc0bc13	0.09410872
106	0x3eaaef49	0.33385685
107	0xbd81ceb1	-0.063382514
108	0xbef03295	-0.4691359
109	0xbed24b10	-0.41072893
110	0x3ed7b14c	0.42127454
111	0xbe5a1d38	-0.21300209
112	0xbf03f8d8	-0.5155158
113	0xbd1a74e0	-0.037709117
114	0xbe8d73dc	-0.27627456
115	0xbe3e960b	-0.18611924
116	0xbdd68828	-0.104751885
117	0x3da451af	0.080233924
118	0xbdb0aadd	-0.086263396
119	0xbe3130d5	-0.17303784
120	0x3e950a30	0.29109335
121	0xbde70c38	-0.112816274
122	0x3d507a38	0.050897807
123	0xbe62f124	-0.221623
124	0xbec12622	-0.37724406
125	0x3e00b449	0.12568773
126	0x3e700c2b	0.23442142
127	0x3dda9788	0.106734335
128	0xb90baeae	-0.00013321146
129	0xbdde2d52	-0.10848488
130	0xbe62c9ba	-0.22147265
131	0xbd3f0aaf	-0.046641048
132	0x3e3f3cf5	0.18675597
133	0x3e39110a	0.18072906
134	0x3d7fb8ac	0.062431976
135	0xbe0a2051	-0.1348889
136	0x3e1220c8	0.14270318
137	0x3d20ea94	0.03928621
138	0x3d925f48	0.0714708
139	0xbe76890d	-0.24075718
140	0xbd9b20b0	-0.07574594
141	0xbd23d363	-0.039996516
142	0xbc929052	-0.017891083
143	0xbd86523f	-0.06558656
144	0xbcbc3dea	-0.022978742
145	0xbe056e44	-0.13030344
146	0xbe67419b	-0.2258362
147	0xbdff8c51	-0.12477935
148	0x3c90c6c7	0.01767291
149	0x3e690c81	0.22758676
150	0xbe1d288b	-0.15347497
151	0xbd9b2ec1	-0.07577277
152	0x3e241e8f	0.16027282
153	0xbbcb8aec	-0.006211629
154	0xbdcd8f4a	-0.10037096
155	0x3df52050	0.11969054
156	0xbdcd3347	-0.10019546
157	0xbcf9ddec	-0.030501328
158	0x3e1b99b7	0.15195356
159	0x3cc88a53	0.02448002
160	0xbdb73268	-0.08945161
161	0x3c4f2ced	0.0126449885
162	0xbce1e495	-0.027574817
163	0x3c91c61a	0.017794657
164	0x3e52c196	0.2058166
165	0xbdcdb71b	-0.1004469
166	0x3d45956f	0.048238214
167	0xbe1d122d	-0.15338965
168	0xbded4bfa	-0.11586757
169	0x3e1fa009	0.15588392
170	0x3de0a0b9	0.109681554
171	0xbd08aa42	-0.033365496
172	0x3d2ff75f	0.04296052
173	0x3df90235	0.12158624
174	0xba411b88	-0.0007366468
175	0x3e177504	0.14790732
176	0xbde12a52	-0.109944
177	0x3d1377eb	0.036003035
178	0xbdcb5de5	-0.09930018
179	0x3debd38b	0.11514958
180	0x3d3cad86	0.046063922
181	0x3c136a9d	0.008997587
182	0xbe1cd163	-0.1531425
183	0x3e592fb4	0.21209604
184	0x3d706415	0.058689196
185	0xbde94aec	-0.11391243
186	0x3cb1db37	0.021710975
187	0xbdc67413	-0.09690108
188	0xbd049e5f	-0.032377597
189	0x3cea8b8d	0.028630996
190	0x3d804fa6	0.06265192
191	0x3de3b1ab	0.11117872

fc.weight f4 [3, 64]
0	0xbe0f4b90	-0.13993669
1	0x3d9c6f75	0.07638446
2	0x3ebce371	0.36892274
3	0xbef1bfb6	-0.47216576
4	0xbe6a8b37	-0.22904669
5	0xbe98c147	-0.2983496
6	0xbf440fe9	-0.76586777
7	0x3e54be0e	0.20775625
8	0xbe5a213c	-0.2130174
9	0xbe9d1823	-0.30682477
10	0xbea58394	-0.3232695
11	0x3f6c4220	0.922884
12	0xbe19367d	-0.14962192
13	0xbddee2a3	-0.10883071
14	0x3ed1214d	0.4084572
15	0xbe3b124f	-0.18268703
16	0xbee9fbbf	-0.4569988
17	0x3ecd4403	0.4009095
18	0x3e338965	0.1753288
19	0x3ea76a8e	0.32698482
20	0xbf4ed691	-0.8079615
21	0xbf210b7f	-0.62908167
22	0x3e90bc36	0.28268594
23	0x3e2ee664	0.17080075
24	0xbee8981b	-0.45428547
25	0xbc55f7bb	-0.013059552
26	0xbe7b6e50	-0.245538
27	0xbe300b1c	-0.17191738
28	0x3e7f18f7	0.24911867
29	0x3e2e8e59	0.17046489
30	0xbd86ad91	-0.06576074
31	0xbf8f6cb9	-1.1205055
32	0x3e6a1f55	0.22863515
33	0xbcfedbe6	-0.031110715
34	0xbc68af09	-0.014201888
35	0xbf12cfdb	-0.5734841
36	0xbdf526e2	-0.11970307
37	0x3dcc9ffd	0.09991453
38	0x3e973cc1	0.2953854
39	0x3e0746ef	0.13210653
40	0x3f182e1d	0.59445363
41	0xbb5792c6	-0.003289388
42	0xbcefa0ec	-0.029251538
43	0xbf5b8688	-0.85752153
44	0x3e8b15af	0.2716498
45	0xbedd37f6	-0.43206757
46	0xbe99ff65	-0.30077663
47	0xbec13548	-0.37735963
48	0x3f40e5ac	0.7535045
49	0xbf2818c0	-0.65662766
50	0x3e8b4344	0.27199757
51	0xbca8fa36	-0.020627122
52	0x3dd76442	0.105171695
53	0xbd8a80d2	-0.06762852
54	0x3ef9f3fa	0.48818952
55	0xbeb6d691	-0.35710576
56	0xbda7d64c	-0.08195171
57	0x3be8547d	0.00709015
58	0xbde3069e	-0.110852465
59	0x3ea657a2	0.32488734
60	0xbccf024b	-0.025269648
61	0xbe3238ac	-0.17404431
62	0xbd3a6c63	-0.045513522
63	0xbe333556	-0.17500815
64	0xbe95335c	-0.29140747
65	0x3dece325	0.11566762
66	0x3dedc036	0.11608927
67	0xbe34e0db	-0.176639
68	0xbcc0651d	-0.023485715
69	0x3d8dd6d7	0.06925743
70	0xbf130dde	-0.57443035
71	0x3f04eb0c	0.51921153
72	0x3e1089f9	0.14115132
73	0x3d920d22	0.07131411
74	0xbebc8829	-0.36822632
75	0xbda07d20	-0.07836366
76	0x3e6b532c	0.22980946
77	0x3e04511e	0.12921569
78	0x3eaa5d84	0.33274472
79	0x3e8fb37a	0.28066617
80	0xbdb6684f	-0.08906614
81	0xbeb6db5d	-0.35714236
82	0xbe75961c	-0.23983043
83	0x3ead9e22	0.33909708
84	0xbe2f96db	-0.1714739
85	0x3ddbb81e	0.10728477
86	0x3d72667b	0.059179764
87	0x3e8c5373	0.27407417
88	0xbd710905	-0.058846492
89	0x3ef46d3b	0.47739586
90	0xbf6bf3f2	-0.92169106
91	0xbcfcf727	-0.03087957
92	0x3ce975cc	0.028498553
93	0x3f1b37a3	0.6063177
94	0x3dbfc340	0.09363413
95	0xbe16784d	-0.14694329
96	0x3d0c751f	0.034291383
97	0x3db6a4cd	0.08918152
98	0xbe839c79	-0.25705317
99	0xbe18e315	-0.14930375
100	0xbd7a05b2	-0.061040588
101	0x3f74ea66	0.95670164
102	0x3e79f6ba	0.24410525
103	0xbe17ed82	-0.14836696
104	0xbe90553d	-0.28190032
105	0xbc07b084	-0.008281831
106	0xbe8522fd	-0.26003256
107	0x3e0249b9	0.12723435
108	0x3f4078d1	0.7518435
109	0x3e90e5d2	0.2830034
110	0x3eb1c583	0.34721002
111	0x3e33a821	0.17544605
112	0x3eaca2fc	0.33718097
113	0x3de60231	0.11230887
114	0xbe2e00d1	-0.16992499
115	0x3e9292cd	0.28627625
116	0x3ee1bb84	0.44088376
117	0x3ea034de	0.31290334
118	0x3df9f282	0.12204458
119	0x3cbc4e04	0.02298642
120	0x3e8f111e	0.27942747
121	0xbe51b890	-0.20480561
122	0x3e33847b	0.17531006
123	0xbe9cebad	-0.30648556
124	0x3ddebae8	0.10875493
125	0x3e230131	0.15918423
126	0xbe14b82b	-0.1452338
127	0xbe251c17	-0.16123997
128	0x3ecfcee7	0.4058754
129	0xbd064208	-0.032777816
130	0xbea59591	-0.32340673
131	0x3e609898	0.2193321
132	0x3e94a96c	0.2903551
133	0xbb5a19ac	-0.0033279462
134	0x3f7a8187	0.97853893
135	0xbede03bd	-0.43362227
136	0xbe157d02	-0.14598468
137	0xbe1f1b15	-0.15537675
138	0x3eef44dd	0.46732226
139	0xbec62ef7	-0.38707706
140	0xbc87c195	-0.0165718
141	0xbe95e2d7	-0.29274628
142	0xbf047eb4	-0.51755834
143	0xbe9a5dba	-0.30149633
144	0x3e6fb1f7	0.23407732
145	0x3e767d5d	0.2407126
146	0x3e509bdc	0.20371956
147	0xbf12d62b	-0.57358044
148	0x3f01f207	0.5075993
149	0x3eb27537	0.34855053
150	0xbe553bde	-0.20823619
151	0xbeb82331	-0.3596435
152	0x3ebca569	0.36844948
153	0xbef19e7a	-0.4719122
154	0x3f9c2951	1.2200109
155	0x3d8fb5c9	0.07017095
156	0xbe9aefcd	-0.30261078
157	0xbf63444a	-0.88776076
158	0xbc30fc85	-0.010802393
159	0x3f1b3e11	0.6064158
160	0xbd331146	-0.043717645
161	0xbe4827ec	-0.19546479
162	0x3e256ee4	0.16155583
163	0x3ef60667	0.4805176
164	0xbccbf487	-0.024896873
165	0xbf99c8da	-1.201442
166	0xbef38440	-0.47561836
167	0xbd181d15	-0.03713711
168	0xbe2164a1	-0.15761043
169	0x3e16abb7	0.14713942
170	0x3d2c9373	0.042132806
171	0x3ec3b8dc	0.38226974
172	0xbf59a7cc	-0.8502166
173	0x3d613d92	0.05499036
174	0xbe0cbcb0	-0.13743854
175	0xbd7a0f10	-0.06104952
176	0xbf29b1e2	-0.6628705
177	0x3e801b17	0.25020668
178	0xbdaf2c67	-0.08553391
179	0xbe14b9ac	-0.14523953
180	0xbeeb4092	-0.459477
181	0xbedf217f	-0.43580243
182	0xbe31bcb2	-0.17357138
183	0xbd86ed75	-0.0658826
184	0xbe253f23	-0.16137366
185	0x3e0ace81	0.13555337
186	0xbd84c9d1	-0.06483806
187	0x3b851548	0.004061375
188	0x3c5b39d2	0.013380485
189	0x3c53b830	0.012922332
190	0x3e969d3d	0.29416838
191	0x3ee2860a	0.4424289

fc.bias f4 [3]
0	0xbeb19240	-0.34681892
1	0x3dc25d9d	0.094905116
2	0x3e012cc5	0.12614734
