mlp_model.pth (torch, 42396 bytes, 6 tensors)

model.0.weight f4 [64, 120]
0	0x3de3f761	0.11131168
1	0x3e17acde	0.14812037
2	0x3b9fe1ba	0.0048792036
3	0x3ba6f73f	0.005095392
4	0xbe3fe13e	-0.18738267
5	0xbd20c759	-0.039252613
6	0xbf01ec9a	-0.5075165
7	0x3e85d6e5	0.26140514
8	0x3d9a07ad	0.07520995
9	0xbcf7ffa6	-0.03027327
10	0x3ef9978a	0.48748428
11	0xbec1224f	-0.37721488
12	0x3d79256d	0.060826708
13	0x3d0bad99	0.034101103
14	0x3e309d62	0.17247537
15	0xbdd2c9d3	-0.10292401
16	0xbe613e1f	-0.21996354
17	0xbca6c20f	-0.020356206
18	0xbe803a8d	-0.2504467
19	0x3cf56746	0.029956471
20	0x3da232d6	0.079198524
21	0xbc90ce6a	-0.01767655
22	0xbd217a21	-0.03942311
23	0xbdde462c	-0.10853228
24	0xbd2b8b8e	-0.041881137
25	0x3e2d59d1	0.16928793
26	0x3bcca511	0.0062452634
27	0x3d973313	0.073827885
28	0xbe1ad84e	-0.15121576
29	0xbe0ca4d4	-0.13734752
30	0x3d0f688f	0.035011824
31	0xbdac798e	-0.08421622
32	0x3c4c9015	0.012485524
33	0xbddafaf5	-0.106923975
34	0xbd4d4a10	-0.05011946
35	0xbdb72857	-0.08943241
36	0x3dcf99da	0.10136767
37	0x3e10145c	0.14070266
38	0x3d165f6c	0.036712095
39	0xbdf98c5d	-0.12184975
40	0xbdde42cc	-0.10852584
41	0xbd0271b9	-0.031846736
42	0x3c0b48ae	0.008501215
43	0x3e020804	0.1269837
44	0x3d0289f1	0.031869832
45	0xbda5b44f	-0.08091032
46	0xbd92255c	-0.07136032
47	0xbda461e2	-0.08026482
48	0xbd56b8af	-0.05242222
49	0x3d8afbb2	0.06786288
50	0x3de2f306	0.11081509
51	0x3da7d327	0.08194571
52	0xbdd2dda6	-0.10296182
53	0xbce0d6bc	-0.027446143
54	0xbddee5ff	-0.10883712
55	0x3e09ef8d	0.13470288
56	0x3c4f597d	0.012655613
57	0xbdd09501	-0.1018467
58	0xbd45c6cc	-0.04828529
59	0xbde1a126	-0.11017065
60	0x3dac0d87	0.08401018
61	0x3d8711e6	0.06595211
62	0x3e3330e1	0.17499115
63	0xbd21d807	-0.03951266
64	0xbe59eda4	-0.21282059
65	0xbde14d7b	-0.11001106
66	0xbd9a7cb2	-0.07543315
67	0xbe3a4236	-0.1818932
68	0x3cb9298d	0.02260282
69	0xbe3a524c	-0.18195456
70	0xbd83263d	-0.06403778
71	0x3cac901b	0.021064809
72	0x3d589426	0.05287566
73	0x3dd6334d	0.104590036
74	0xbd27c0a3	-0.040955197
75	0x3d5b78a7	0.05358186
76	0xbe37c991	-0.17947985
77	0x3d030f3b	0.031996947
78	0xbd3c3f73	-0.045958947
79	0xbe5d31a3	-0.21600966
80	0x3dc32779	0.09529013
81	0xbe25e312	-0.16199902
82	0x3e0f901d	0.14019819
83	0xbbf336b8	-0.0074222945
84	0xbc8ef67b	-0.017451515
85	0x3e40dee0	0.1883502
86	0x3d2ed38d	0.04268222
87	0x3e1e0d47	0.15434752
88	0xbe6a747a	-0.22895995
89	0xbd1604d4	-0.0366257
90	0xbd38ff2c	-0.045165226
91	0xbe41c424	-0.18922478
92	0x3d42a8e0	0.047524333
93	0xbe07e382	-0.13270381
94	0x3dccd81b	0.10002156
95	0xbc4803be	-0.012207923
96	0x3dd4ab9c	0.103842944
97	0x3dc75398	0.09732741
98	0xbd409f53	-0.047026943
99	0x3e3f299d	0.18668218
100	0xbe7737eb	-0.24142425
101	0xbdcc70f9	-0.09982485
102	0x3c8592eb	0.016305408
103	0xbe293fd7	-0.16528259
104	0x3d8dcb0e	0.06923495
105	0xbe2f2082	-0.17102244
106	0x3c314f8d	0.010822189
107	0x3d9dbac8	0.07701641
108	0x3d170ca4	0.03687729
109	0x3e24aa57	0.16080604
110	0xbe658ee7	-0.22417794
111	0x3e4ebf63	0.20190196
112	0xbe4eab2f	-0.20182489
113	0xbde5ab9c	-0.112143725
114	0x3e2c7790	0.16842484
115	0xbe1e721b	-0.15473215
116	0xbd0eabf6	-0.034831963
117	0xbdee4f11	-0.116361745
118	0x3df119ee	0.11772524
119	0x3da1c8c8	0.07899624
120	0x3d964bbf	0.07338666
121	0xbcd35fac	-0.025802456
122	0xbde4ff53	-0.11181512
123	0x3f0e4cc4	0.55585885
124	0xbe72a32e	-0.2369506
125	0x3d9de405	0.07709507
126	0x3e4279b5	0.1899174
127	0xbe9d9e91	-0.3078504
128	0xbdf9fa3b	-0.12205931
129	0x3e4b748a	0.19868675
130	0xbd85e955	-0.06538645
131	0x3e521560	0.20515966
132	0x3d5ebc73	0.054378938
133	0xbd4800c9	-0.048828874
134	0xbe7f359b	-0.24922793
135	0x3ee21182	0.44153982
136	0xbd95c55a	-0.073130324
137	0x3d7c39c5	0.06157853
138	0x3ec3ce8a	0.38243514
139	0xbd670481	-0.05640078
140	0xbd8062cc	-0.06268844
141	0x3e33fbaf	0.17576478
142	0xbe73b736	-0.23800358
143	0xbe45025c	-0.19239181
144	0x3e284175	0.1643122
145	0xbe0dfcd2	-0.13865975
146	0x3dad4463	0.08460309
147	0x3de28b56	0.110617325
148	0xbdc25e0b	-0.094905935
149	0x3e277b7e	0.16355702
150	0x3e206019	0.15661658
151	0x3cf5f5ae	0.030024376
152	0x3bb49b32	0.005511665
153	0x3e243f31	0.1603973
154	0xbdb5f602	-0.08884813
155	0x3dbc3abf	0.091908924
156	0x3e4b5191	0.19855334
157	0xbd5391c7	-0.051652696
158	0xbd261948	-0.040551454
159	0x3c9d6af3	0.019216036
160	0xbe4e9d54	-0.20177203
161	0x3cb46e81	0.022025349
162	0x3c2ee7e8	0.010675408
163	0x3d466716	0.048438154
164	0x3d08ecae	0.03342884
165	0x3dee14a9	0.11625034
166	0x3c84611a	0.016159583
167	0x3e080f13	0.13287
168	0x3d863b16	0.065542385
169	0xbdaf54c7	-0.08561092
170	0xbe520775	-0.20510657
171	0x3e37850a	0.17921844
172	0xbe622d2e	-0.22087547
173	0x3dd5d43f	0.10440873
174	0x3d2b0ecb	0.041762155
175	0x3d3e1338	0.046405047
176	0x3cc7b193	0.024376666
177	0x3dfc4307	0.12317472
178	0x3e3ff70f	0.18746589
179	0x3dc21c4a	0.09478052
180	0x3e2f1504	0.1709786
181	0x3ce81989	0.028332489
182	0xbe10e189	-0.14148535
183	0x3da5af82	0.08090116
184	0xbe2cb56c	-0.16866082
185	0x3d8c9b17	0.068655185
186	0x3de625f6	0.11237709
187	0x3db6febd	0.08935306
188	0x3c808a8f	0.01569107
189	0x3e06a612	0.13149288
190	0x3d127aa6	0.035761498
191	0x3e44430c	0.19166201
192	0x3dabb94c	0.08384952
193	0xbdddb35b	-0.10825225
194	0x3cc57ef6	0.024108391
195	0x3d5b4de0	0.053541064
196	0xbe4b104f	-0.1983044
197	0x3d2fa6dd	0.042883743
198	0xbd12c695	-0.035833914
199	0x3e0d3900	0.13791275
200	0xbde4d21c	-0.11172888
201	0x3d7e313b	0.06205867
202	0x3c42bfd0	0.011886552
203	0x3c9849f6	0.018589955
204	0x3e05d7fe	0.13070676
205	0xbc67b019	-0.014141106
206	0xbc91023e	-0.017701264
207	0x3e3fec11	0.18742396
208	0xbe3a06c5	-0.18166645
209	0x3d6d7207	0.057970073
210	0x3d754eca	0.059889592
211	0x3e38e9a7	0.18057881
212	0x3cbe875a	0.0232579
213	0x3d102d51	0.035199467
214	0xbdc6d250	-0.09708083
215	0x3cad671e	0.021167334
216	0x3e0171ff	0.12641142
217	0x3d1e47d9	0.038642738
218	0xbcc5f968	-0.024166778
219	0x3e29f059	0.16595592
220	0xbe022806	-0.1271058
221	0x3a9600a0	0.0011444278
222	0x3c823e6a	0.015898902
223	0x3df61a89	0.1201678
224	0xbd949e0c	-0.072567075
225	0x3d9fbeb4	0.078000456
226	0xbd4988ff	-0.049202915
227	0xbd52d9d7	-0.05147728
228	0x3dc6b126	0.09701757
229	0xbc76610a	-0.015037784
230	0x3cc65dee	0.024214711
231	0x3ddcd349	0.10782487
232	0xbe4f1132	-0.20221403
233	0x3db68b85	0.0891333
234	0x3deabd47	0.11461883
235	0x3de061e2	0.1095617
236	0xbc387cd3	-0.011260229
237	0x3e0167b2	0.12637213
238	0xbd437712	-0.047720976
239	0xbc31c247	-0.010849542
240	0x3cb28731	0.02179298
241	0xbda98bd6	-0.08278625
242	0xbf1ce8c6	-0.61292684
243	0x3ea1a459	0.315707
244	0xbdb2469a	-0.087048724
245	0x3e4b9987	0.19882785
246	0x3ec0821b	0.37599263
247	0xbd9212e9	-0.07132513
248	0x3e1fdf92	0.15612629
249	0xbe415137	-0.18878637
250	0x3d92d22a	0.07168992
251	0xbeb9d790	-0.36297274
252	0xbc467ea5	-0.012115155
253	0xbe0dace2	-0.13835481
254	0xbe275082	-0.16339305
255	0xbdb38067	-0.08764725

model.0.bias f4 [64]
0	0xbf062a77	-0.52408546
1	0x3f4e246a	0.80524313
2	0xbf21e356	-0.6323751
3	0xbea865f0	-0.32890272
4	0x3e3eb960	0.18625402
5	0xbf4d57fc	-0.8021238
6	0xbf9148f4	-1.1350389
7	0xbf51adcf	-0.81905836
8	0xbd12bbc5	-0.035823602
9	0xbf791781	-0.9730149
10	0xbf5f5e3e	-0.8725318
11	0x3eced427	0.40396234
12	0xbf187799	-0.5955749
13	0x3f82f069	1.0229617
14	0xbf837504	-1.0270085
15	0x3f0cf4aa	0.5506083
16	0xbf6775c3	-0.90414065
17	0xbeba468e	-0.36381954
18	0x3f9b5dc2	1.2137988
19	0x3f12fe9e	0.57419765
20	0xbee0432c	-0.43801248
21	0x3f41b536	0.7566713
22	0xbfad6b73	-1.3548416
23	0xbf1e0e2f	-0.6174039
24	0xbf7d583f	-0.9896278
25	0x3f4ac598	0.79207754
26	0x3e23d834	0.16000444
27	0x3f6c2604	0.9224551
28	0xbf6deec0	-0.9294243
29	0xbea6bd30	-0.32566214
30	0xbf7c9201	-0.98660284
31	0x3faaf229	1.3355151
32	0x3d797f75	0.060912568
33	0xbd2ca3a0	-0.042148232
34	0xbf96cbfa	-1.1780999
35	0xbf5bc067	-0.8584046
36	0xbf14691f	-0.579729
37	0xbe8a70ea	-0.27039272
38	0x3c3467c1	0.011011065
39	0xbd87fe16	-0.0664026
40	0x3f15a136	0.58449113
41	0xbf610d7b	-0.87911195
42	0xbf947358	-1.15977
43	0x3df86597	0.12128752
44	0x3da961ff	0.082706444
45	0xbf672c21	-0.9030171
46	0xbf85b5ec	-1.0446143
47	0x3eccfb25	0.40035358
48	0xbf5106ab	-0.816508
49	0xbf61a347	-0.88139766
50	0xbf2cbf02	-0.67478955
51	0xbee97c95	-0.4560286
52	0x3bcfe41c	0.0063443314
53	0xbf50205d	-0.8129938
54	0xbf3fe460	-0.7495785
55	0xbf56028d	-0.8359764
56	0xbe3b5bfd	-0.1829681
57	0xbfa05779	-1.2526695
58	0x3ce5cce9	0.02805181
59	0xbe96e74a	-0.29473335
60	0x3c981c40	0.018568158
61	0x3e006ed9	0.12542285
62	0xbe1f589e	-0.15561149
63	0xbf0b5c6a	-0.5443789

model.2.weight f4 [32, 64]
0	0x3e1bcd48	0.15215027
1	0x3d495fd0	0.04916364
2	0x3c8ed7ca	0.01743688
3	0x3e78a87b	0.2428302
4	0x3d79f97c	0.061028942
5	0x3e87f630	0.26555014
6	0xbea0dc75	-0.31418195
7	0xbe1b76c5	-0.15182026
8	0x3ec8bda2	0.39207178
9	0x3e4457c8	0.19174111
10	0x3e2df057	0.16986214
11	0xbd14fdec	-0.03637497
12	0xbe5a7694	-0.21334296
13	0x3dd01bf3	0.10161581
14	0x3da14572	0.07874574
15	0xbe60d377	-0.21955667
16	0x3d9b84db	0.075936995
17	0x3dea7e75	0.11449901
18	0xbd647182	-0.055772312
19	0xbe09574c	-0.13412207
20	0x3e4ba252	0.19886139
21	0xbea7b204	-0.32753003
22	0x3c6ca04c	0.014442515
23	0xbe3ccec2	-0.18438247
24	0x3d376e10	0.0447827
25	0xbe01ffc1	-0.12695219
26	0x3db2299f	0.08699345
27	0x3d13f221	0.036119584
28	0x3ed2c87b	0.4116858
29	0xbe56c15d	-0.209722
30	0x3e435b60	0.19077826
31	0xbe3e72f7	-0.18598543
32	0xbe25a760	-0.1617713
33	0x3c96f71d	0.01842838
34	0x3bfd15c4	0.007723542
35	0x3dc1fa36	0.09471552
36	0x3e3788ab	0.17923228
37	0x3e00a0e8	0.12561381
38	0x3e3f95a5	0.18709429
39	0x3ce46299	0.027879046
40	0xbe10d9e3	-0.14145617
41	0x3da8269c	0.08210489
42	0xbbf5a9c4	-0.0074970443
43	0x3dbac6e4	0.091199666
44	0x3b170e0c	0.0023049144
45	0xbdafae9c	-0.08578226
46	0x3e0c584c	0.13705558
47	0xbe819d92	-0.2531553
48	0x3f0f1da3	0.559046
49	0x3c5e99c6	0.013586467
50	0xbe138227	-0.14405118
51	0x3a984860	0.0011618249
52	0x3f1912f0	0.5979452
53	0xbc99f876	-0.018795233
54	0x3ea85274	0.32875407
55	0x3efd7040	0.49499702
56	0xbd12a59c	-0.03580247
57	0x3dfe8501	0.12427712
58	0x3eafccac	0.3433584
59	0x3e5e9358	0.21735895
60	0x3ca43cf6	0.0200486
61	0x3dad984d	0.08476315
62	0xbe37f1d8	-0.1796335
63	0x3ecf97f6	0.40545624
64	0x3d90a3bb	0.07062479
65	0x3e0727db	0.13198797
66	0xbda4bff2	-0.08044423
67	0x3e146ea1	0.14495327
68	0xbd19b40f	-0.037525233
69	0xbdcf287d	-0.101151444
70	0xbe6460b6	-0.22302517
71	0x3e709d2f	0.23497461
72	0x3da15d03	0.07879069
73	0xbe872f3a	-0.26403219
74	0x3e2c54d0	0.16829228
75	0xbd3e4104	-0.046448722
76	0xbdbc74b5	-0.092019476
77	0x3d37f6d8	0.044913143
78	0xbe5891fc	-0.21149439
79	0xbe1f3454	-0.15547305
80	0xbd159c37	-0.03652593
81	0xbc1ecf09	-0.009692916
82	0xbeb44498	-0.35208583
83	0x3e5cd31e	0.2156491
84	0xbed82af2	-0.42220265
85	0xbdc75dae	-0.09734665
86	0x3d7e1424	0.062030926
87	0x3e1482af	0.14502977
88	0x3d28ccf5	0.041211087
89	0x3e311501	0.17293169
90	0x3db8d072	0.09024133
91	0x3cb9745a	0.022638489
92	0xbf05cc22	-0.52264607
93	0xbcbae694	-0.022815026
94	0xbe1e51ab	-0.15460841
95	0xbe0e5898	-0.13900983
96	0x3de529bc	0.11189601
97	0xbd130b8c	-0.035899684
98	0xbd9abb35	-0.07555238
99	0xbd2a8913	-0.04163463
100	0x3e33b46f	0.17549299
101	0xbdcbe0d7	-0.09954994
102	0x3d5b40ac	0.053528473
103	0x3cfdfacc	0.031003378
104	0xbd32e220	-0.04367268
105	0x3e1de89f	0.15420769
106	0xbd2330f9	-0.039841626
107	0x3e5320d6	0.20617995
108	0x3d4189f0	0.047250688
109	0xbe5e3da9	-0.21703209
110	0xbe9ad42b	-0.30239996
111	0x3e3ea0c2	0.18616012
112	0xbdf4735f	-0.11936068
113	0xbe8c464c	-0.27397382
114	0x3b93b752	0.0045079375
115	0xbd350189	-0.044190917
116	0x3e7440da	0.23852864
117	0x3da80f5c	0.082060546
118	0x3eaecd23	0.34140882
119	0xbe2e3ee2	-0.17016175
120	0xbea4ee83	-0.3221322
121	0x3d9e4c66	0.077294156
122	0xbc3093d0	-0.010777429
123	0xbce9bba0	-0.02853185
124	0xbd6b6a9e	-0.057474725
125	0xbeb985ba	-0.36234838
126	0x3dd48618	0.10377139
127	0x3db567e8	0.08857709
128	0x3e859304	0.26088727
129	0x3d546008	0.051849395
130	0xbe12a6cd	-0.14321442
131	0x3e98ff01	0.29882053
132	0xbdc002e0	-0.09375548
133	0x3c70c28e	0.014694823
134	0xbd6f8b68	-0.058482558
135	0xbe14628d	-0.14490719
136	0x3e51bc45	0.20481975
137	0xbc9d17d4	-0.019176401
138	0xbe1cbf4f	-0.15307353
139	0x3caad491	0.020853313
140	0xbea2ac6d	-0.31772175
141	0x3d8d6269	0.06903536
142	0x3d3d0fd4	0.046157673
143	0xbd09d458	-0.033649772
144	0xbc913173	-0.017723775
145	0xbe9ed20f	-0.31019637
146	0x3e15eae7	0.1464039
147	0x3e83ae0a	0.2571872
148	0x3e8c8623	0.27446088
149	0x3de8adbf	0.113612644
150	0xbeafc8ec	-0.3433298
151	0xbd33fc1e	-0.04394161
152	0xbda90aa8	-0.08253986
153	0x3d67a1e4	0.056550875
154	0x3e85725c	0.26063812
155	0x3e678e81	0.22612955
156	0x3da05ad8	0.07829827
157	0xbebde9f8	-0.37092566
158	0x3d66f3b8	0.056384772
159	0x3dc3bdf1	0.09557713
160	0x3e6a66dd	0.22890802
161	0xbd4425fb	-0.047887783
162	0x3e0ca0ec	0.13733262
163	0xbe9fe74a	-0.31231147
164	0xbd7a1c93	-0.061062407
165	0xbdb0c6df	-0.08631682
166	0x3e1d63b1	0.1537006
167	0xbe954d93	-0.29160747
168	0x3e73e7d0	0.23818898
169	0xbe27fd39	-0.1640519
170	0xbe8dc33d	-0.27688017
171	0x3c74eed6	0.014949521
172	0x3e9c6cf2	0.3055187
173	0xbeb03e07	-0.34422323
174	0xbe21d785	-0.1580487
175	0xbe98d6c7	-0.29851362
176	0x3e872209	0.26393154
177	0xbc7143ef	-0.014725669
178	0xbee2812d	-0.44239178
179	0x3dbf2ad6	0.09334342
180	0x3f17776b	0.5916659
181	0x3e19b591	0.15010668
182	0x3e8c5f83	0.2741662
183	0x3e26e7fd	0.16299434
184	0xbd98f48e	-0.0746852
185	0xbe156fbb	-0.14593403
186	0x3dc0ae09	0.094081946
187	0x3ee21be5	0.44161907
188	0x3e2726e8	0.16323435
189	0xbe930c44	-0.28720295
190	0xbe832f64	-0.25622094
191	0x3bd8e9c9	0.0066196662
192	0x3de8e0bf	0.11370992
193	0xbd85c83b	-0.065323316
194	0xbd9e1603	-0.07719042
195	0x3e0d0b17	0.13773762
196	0xbe8619dd	-0.26191607
197	0xbe99cf33	-0.30040893
198	0x3e07cd02	0.13261798
199	0x3dfd2ffc	0.12362668
200	0x3d8de19c	0.06927797
201	0x3d66165e	0.056173675
202	0x3e0ed9c1	0.13950254
203	0x3c34f7cd	0.011045408
204	0x3cdf9e1f	0.027297078
205	0xbbfbd439	-0.007685211
206	0xbf187e9c	-0.5956819
207	0xbeb22a3f	-0.34797856
208	0xbdf0f75f	-0.11765932
209	0xbef1d008	-0.47229028
210	0xbe8773b9	-0.26455477
211	0x3bac145c	0.0052514505
212	0x3dbe2e04	0.092861205
213	0xbddee5b8	-0.10883659
214	0xbd92d8fb	-0.07170292
215	0x3e391ad2	0.18076637
216	0x3a88eb52	0.0010446107
217	0xbd79b892	-0.060967036
218	0x3dc999d6	0.09843795
219	0x3df58992	0.1198913
220	0xbdfd56c3	-0.12370064
221	0x3e88fd38	0.2675569
222	0x3e70e50d	0.23524876
223	0xbdae52ee	-0.08511911
224	0x3d005ae8	0.031336695
225	0xbe8679e0	-0.26264858
226	0xbe59f15c	-0.21283478
227	0xbe3ede6a	-0.18639532
228	0xbdd52991	-0.10408319
229	0xbdf79633	-0.12089195
230	0x3d5ee0e3	0.054413687
231	0x3ea4275d	0.32061282
232	0x3c8db238	0.017296895
233	0x3d7cfec4	0.0617664
234	0x3d94ec4e	0.07271634
235	0xbd17ed17	-0.03709134
236	0x3c31fb7a	0.010863179
237	0x3e62f0cd	0.2216217
238	0xbdd633a4	-0.104590684
239	0xbef2a338	-0.4739015
240	0xbb0fd24a	-0.002194541
241	0xbf1a5870	-0.60291195
242	0xbe25ad21	-0.16179325
243	0xbdedc3ba	-0.116095975
244	0x3deee2b6	0.116643354
245	0x3dd5d11b	0.10440274
246	0xbd70b22e	-0.058763675
247	0xbed0c420	-0.40774632
248	0x3df2febf	0.11864995
249	0xbea87743	-0.3290349
250	0xbe3324cd	-0.17494507
251	0x3e1f8d41	0.15581228
252	0x3e5a289a	0.21304551
253	0xbd3272db	-0.043566566
254	0xbd8ad124	-0.06778172
255	0xbe20443c	-0.1565103

model.2.bias f4 [32]
0	0xbe2962f7	-0.16541658
1	0xbe8e5db7	-0.27805874
2	0x3d5a4c39	0.053295348
3	0xbf8a3351	-1.079691
4	0xbdeed973	-0.11662569
5	0x3dddcb3b	0.10829779
6	0x3e00fcd0	0.1259644
7	0x3eb8ff53	0.36132297
8	0x3eb55a3d	0.3542041
9	0xbd0dac09	-0.034587894
10	0xbcd49148	-0.025948182
11	0xbffba514	-1.9659753
12	0x3e838d8d	0.25693932
13	0x3f0e986c	0.5570133
14	0xbf7c6cdb	-0.986036
15	0x3e65c9c2	0.22440246
16	0xbfb961a7	-1.4482926
17	0xbc2db49c	-0.010602143
18	0xbee50349	-0.4472907
19	0x3e84da14	0.2594763
20	0x3ef9b286	0.48769015
21	0x3c7d09b1	0.015444205
22	0x3e01486b	0.12625282
23	0xbf26e64f	-0.65195173
24	0xbde8c306	-0.11365323
25	0xbcd2a88f	-0.02571514
26	0x3ed4b4ac	0.41544092
27	0xbffd7eef	-1.9804362
28	0xbeb9d3df	-0.36294457
29	0xbcc10e0a	-0.023566265
30	0xbfc16a97	-1.5110654
31	0xbfd03675	-1.6266619

model.4.weight f4 [3, 32]
0	0xbf1eff11	-0.6210795
1	0xbeaf32f4	-0.34218562
2	0xbf802bb5	-1.0013338
3	0xbf444b1c	-0.7667711
4	0xbcff0c63	-0.031133836
5	0x3ee2f8d0	0.44330454
6	0xbf26e40a	-0.6519171
7	0xbf2f5b54	-0.6849873
8	0xbd9ba213	-0.075992726
9	0x3f350a55	0.7071889
10	0x3c92072f	0.017825691
11	0xbf921f76	-1.1415851
12	0x3f6326d0	0.887311
13	0xbf7e4ab3	-0.9933273
14	0xbf17e906	-0.5933994
15	0x3ea81db5	0.32835165
16	0xbf167501	-0.58772284
17	0xbdc0f5ad	-0.09421859
18	0x3e9cb30c	0.30605352
19	0x3f682a1e	0.90689266
20	0x3e895acc	0.26827085
21	0x3f44df56	0.76903284
22	0xbf05ee9a	-0.523172
23	0xbe8e9d14	-0.27854216
24	0x3e096bb5	0.13419993
25	0xbeea3571	-0.45743898
26	0xbf473a9c	-0.77823806
27	0xbe0c67a0	-0.13711405
28	0x3defd7d5	0.117110886
29	0x3f194d55	0.59883624
30	0xbee27d69	-0.44236305
31	0xbdae60e3	-0.085145734
32	0x3dbc719c	0.09201357
33	0x3eaab4ac	0.33340967
34	0x3d99428d	0.07483397
35	0xbf1931b8	-0.5984149
36	0x3eb9511f	0.36194703
37	0x3e9cf0d6	0.30652493
38	0x3e0def36	0.13860783
39	0x3f067c3b	0.5253331
40	0x3eb60db3	0.35557327
41	0x3d947ad6	0.072499916
42	0x3f15d470	0.5852728
43	0xbf3c561b	-0.73568887
44	0x3d359d80	0.044339657
45	0xbefbf1b1	-0.49207833
46	0xbeb843fd	-0.3598937
47	0x3e1f7234	0.15570909
48	0xbea9e258	-0.331805
49	0x3e606b0f	0.2191584
50	0xbecb25cc	-0.39677274
51	0xbd3bc1ac	-0.045838997
52	0x3eef8392	0.46780068
53	0xbf1abeff	-0.60447687
54	0x3d7bf486	0.061512493
55	0xbef2c993	-0.47419414
56	0x3e154a46	0.14579114
57	0x3e8c3a1a	0.27388078
58	0xbe4bd11a	-0.19903985
59	0xbf1c1ab7	-0.60978264
60	0x3eb5e3da	0.355254
61	0x3e92a53e	0.28641695
62	0xbee993b1	-0.45620492
63	0xbf5432f8	-0.8289027
64	0x3e5c4d86	0.21513948
65	0xbe82f858	-0.25580096
66	0x3ea5ce3e	0.32383913
67	0x3efcee29	0.49400452
68	0xbef09c1b	-0.469941
69	0xbf0a572e	-0.54039276
70	0x3c5fa092	0.013649123
71	0xbeba07d9	-0.36334112
72	0xbe95facd	-0.29292908
73	0xbf089232	-0.53348076
74	0xbf0e8ab1	-0.55680376
75	0x3f1e49ce	0.61831367
76	0xbf1dd653	-0.6165516
77	0x3f2f5c6b	0.68500394
78	0x3ec92c1a	0.3929146
79	0xbe614bbd	-0.22001548
80	0x3e528caf	0.20561479
81	0xbe5712a4	-0.21003205
82	0x3dc5c02f	0.09655797
83	0xbf01a189	-0.5063711
84	0xbf8772e7	-1.058194
85	0x3d2f117b	0.04274128
86	0x3e17d867	0.14828645
87	0x3f0cc3e9	0.54986435
88	0xbe08a3bc	-0.1334371
89	0xbe6415ff	-0.22274016
90	0x3f2e8791	0.6817561
91	0x3ea420b6	0.32056206
92	0xbe3fbcd0	-0.1872437
93	0xbedea802	-0.43487555
94	0x3ed82401	0.4221497
95	0x3f3856db	0.7200753

model.4.bias f4 [3]
0	0x3e3ece0a	0.18633285
1	0xbec43ce7	-0.38327715
2	0x3e0c01ba	0.13672534
